model='kf' system='our' seqlen=4096
input_names=['q', 'k', 'v', 'exp_rand']
output_names=['out', 'kf_score']
check=True
graph main_graph (
  %q[FLOAT16, 1x4096x32x128]
  %k[FLOAT16, 1x4096x32x128]
  %v[FLOAT16, 1x4096x32x128]
  %exp_rand[FLOAT, 1x32x4096x4096]
) {
  %/Constant_output_0 = Constant[value = <Tensor>]()
  %/Constant_1_output_0 = Constant[value = <Scalar Tensor []>]()
  %/Trilu_output_0 = Trilu[upper = 1](%/Constant_output_0, %/Constant_1_output_0)
  %/Transpose_output_0 = Transpose[perm = [0, 2, 1, 3]](%q)
  %/Transpose_1_output_0 = Transpose[perm = [0, 2, 1, 3]](%v)
  %/Transpose_2_output_0 = Transpose[perm = [0, 2, 3, 1]](%k)
  %/MatMul_output_0 = MatMul(%/Transpose_output_0, %/Transpose_2_output_0)
  %/Constant_2_output_0 = Constant[value = <Scalar Tensor []>]()
  %/Div_output_0 = Div(%/MatMul_output_0, %/Constant_2_output_0)
  %/Add_output_0 = Add(%/Div_output_0, %/Trilu_output_0)
  %/Cast_output_0 = Cast[to = 1](%/Add_output_0)
  %/Softmax_output_0 = Softmax[axis = -1](%/Cast_output_0)
  %/Cast_1_output_0 = Cast[to = 10](%/Softmax_output_0)
  %/MatMul_1_output_0 = MatMul(%/Cast_1_output_0, %/Transpose_1_output_0)
  %/Transpose_3_output_0 = Transpose[perm = [0, 2, 1, 3]](%/MatMul_1_output_0)
  %/Log_output_0 = Log(%exp_rand)
  %/Neg_output_0 = Neg(%/Log_output_0)
  %/Cast_2_output_0 = Cast[to = 1](%/Add_output_0)
  %/Add_1_output_0 = Add(%/Cast_2_output_0, %/Neg_output_0)
  %/Constant_3_output_0 = Constant[value = <Scalar Tensor []>]()
  %/Div_1_output_0 = Div(%/Add_1_output_0, %/Constant_3_output_0)
  %/Cast_3_output_0 = Cast[to = 1](%/Div_1_output_0)
  %/Softmax_1_output_0 = Softmax[axis = -1](%/Cast_3_output_0)
  %onnx::ReduceSum_30 = Constant[value = <Tensor>]()
  %/ReduceSum_output_0 = ReduceSum[keepdims = 0](%/Softmax_1_output_0, %onnx::ReduceSum_30)
  %/Constant_4_output_0 = Constant[value = <Tensor>]()
  %out = Reshape[allowzero = 0](%/Transpose_3_output_0, %/Constant_4_output_0)
  %/Constant_5_output_0 = Constant[value = <Tensor>]()
  %kf_score = Reshape[allowzero = 0](%/ReduceSum_output_0, %/Constant_5_output_0)
  return %out, %kf_score
}
/home/ppopp25_ae/ppopp25_ae/3rd/asuka/python/asuka/translate.py:217: UserWarning: The given NumPy array is not writable, and PyTorch does not support non-writable tensors. This means writing to this tensor will result in undefined behavior. You may want to copy the array to protect its data or make it writable before converting it to a tensor. This type of warning will be suppressed for the rest of this program. (Triggered internally at ../torch/csrc/utils/tensor_numpy.cpp:206.)
  operand_torch = torch.from_numpy(operand)
module {
  func.func @KeyFormer(%arg0: tensor<1x4096x32x128xf16>, %arg1: tensor<1x4096x32x128xf16>, %arg2: tensor<1x4096x32x128xf16>, %arg3: tensor<1x32x4096x4096xf32>) -> (tensor<1x4096x32x128xf16>, tensor<1x32x4096xf32>) {
    %0 = asuka.trilu diagonal = 1, is_upper = true, shape = [4096, 4096], val = 0xFC00 : f16
    %1 = asuka.permute %arg0, dims = [0, 2, 1, 3] : (tensor<1x4096x32x128xf16>) -> tensor<1x32x4096x128xf16>
    %2 = asuka.permute %arg2, dims = [0, 2, 1, 3] : (tensor<1x4096x32x128xf16>) -> tensor<1x32x4096x128xf16>
    %3 = asuka.permute %arg1, dims = [0, 2, 3, 1] : (tensor<1x4096x32x128xf16>) -> tensor<1x32x128x4096xf16>
    %4 = asuka.dot %1, %3 : (tensor<1x32x4096x128xf16>, tensor<1x32x128x4096xf16>) -> tensor<1x32x4096x4096xf16>
    %cst = arith.constant dense<1.131250e+01> : tensor<1xf16>
    %5 = asuka.div %4, %cst : (tensor<1x32x4096x4096xf16>, tensor<1xf16>) -> tensor<1x32x4096x4096xf16>
    %6 = asuka.add %5, %0 : (tensor<1x32x4096x4096xf16>, tensor<4096x4096xf16>) -> tensor<1x32x4096x4096xf16>
    %7 = asuka.convert %6, type = f32 : (tensor<1x32x4096x4096xf16>) -> tensor<1x32x4096x4096xf32>
    %8 = asuka.softmax %7, dim = -1 : (tensor<1x32x4096x4096xf32>) -> tensor<1x32x4096x4096xf32>
    %9 = asuka.convert %8, type = f16 : (tensor<1x32x4096x4096xf32>) -> tensor<1x32x4096x4096xf16>
    %10 = asuka.dot %9, %2 : (tensor<1x32x4096x4096xf16>, tensor<1x32x4096x128xf16>) -> tensor<1x32x4096x128xf16>
    %11 = asuka.permute %10, dims = [0, 2, 1, 3] : (tensor<1x32x4096x128xf16>) -> tensor<1x4096x32x128xf16>
    %12 = asuka.log %arg3 : (tensor<1x32x4096x4096xf32>) -> tensor<1x32x4096x4096xf32>
    %13 = asuka.neg %12 : (tensor<1x32x4096x4096xf32>) -> tensor<1x32x4096x4096xf32>
    %14 = asuka.convert %6, type = f32 : (tensor<1x32x4096x4096xf16>) -> tensor<1x32x4096x4096xf32>
    %15 = asuka.add %14, %13 : (tensor<1x32x4096x4096xf32>, tensor<1x32x4096x4096xf32>) -> tensor<1x32x4096x4096xf32>
    %cst_0 = arith.constant dense<1.500000e+00> : tensor<1xf32>
    %16 = asuka.div %15, %cst_0 : (tensor<1x32x4096x4096xf32>, tensor<1xf32>) -> tensor<1x32x4096x4096xf32>
    %17 = asuka.convert %16, type = f32 : (tensor<1x32x4096x4096xf32>) -> tensor<1x32x4096x4096xf32>
    %18 = asuka.softmax %17, dim = -1 : (tensor<1x32x4096x4096xf32>) -> tensor<1x32x4096x4096xf32>
    %19 = asuka.reduce(%18), dim = 2, op =  ADD, keep_dim = false : (tensor<1x32x4096x4096xf32>) -> tensor<1x32x4096xf32>
    %20 = asuka.reshape %11 : (tensor<1x4096x32x128xf16>) -> tensor<1x4096x32x128xf16>
    %21 = asuka.reshape %19 : (tensor<1x32x4096xf32>) -> tensor<1x32x4096xf32>
    return %20, %21 : tensor<1x4096x32x128xf16>, tensor<1x32x4096xf32>
  }
}
idx=0 arith.constant
idx=1 arith.constant
idx=2 asuka.trilu
idx=3 asuka.permute
idx=4 asuka.permute
idx=5 asuka.permute
idx=6 asuka.dot
idx=7 asuka.div
idx=8 asuka.add
idx=9 asuka.convert
idx=10 asuka.exp
idx=11 asuka.reduce
idx=12 asuka.div
idx=13 asuka.convert
idx=14 asuka.dot
idx=15 asuka.permute
idx=16 asuka.log
idx=17 asuka.neg
idx=18 asuka.add
idx=19 asuka.div
idx=20 asuka.exp
idx=21 asuka.reduce
idx=22 asuka.div
idx=23 asuka.reduce
len(connected_partitions)=16023
pruning bad partition(provide_output=False):   0%|          | 0/16023 [00:00<?, ?it/s]pruning bad partition(provide_output=False):   1%|          | 150/16023 [00:00<00:10, 1498.09it/s]pruning bad partition(provide_output=False):   2%|▏         | 300/16023 [00:00<00:10, 1479.64it/s]pruning bad partition(provide_output=False):   3%|▎         | 448/16023 [00:00<00:10, 1478.46it/s]pruning bad partition(provide_output=False):   4%|▎         | 599/16023 [00:00<00:10, 1490.31it/s]pruning bad partition(provide_output=False):   5%|▍         | 749/16023 [00:00<00:10, 1483.79it/s]pruning bad partition(provide_output=False):   6%|▌         | 898/16023 [00:00<00:10, 1481.69it/s]pruning bad partition(provide_output=False):   7%|▋         | 1047/16023 [00:00<00:10, 1471.70it/s]pruning bad partition(provide_output=False):   7%|▋         | 1198/16023 [00:00<00:09, 1483.11it/s]pruning bad partition(provide_output=False):   8%|▊         | 1349/16023 [00:00<00:09, 1487.91it/s]pruning bad partition(provide_output=False):   9%|▉         | 1498/16023 [00:01<00:09, 1480.42it/s]pruning bad partition(provide_output=False):  10%|█         | 1652/16023 [00:01<00:09, 1496.61it/s]pruning bad partition(provide_output=False):  11%|█▏        | 1803/16023 [00:01<00:09, 1498.80it/s]pruning bad partition(provide_output=False):  12%|█▏        | 1954/16023 [00:01<00:09, 1499.95it/s]pruning bad partition(provide_output=False):  13%|█▎        | 2105/16023 [00:01<00:09, 1484.71it/s]pruning bad partition(provide_output=False):  14%|█▍        | 2254/16023 [00:01<00:09, 1485.39it/s]pruning bad partition(provide_output=False):  15%|█▌        | 2405/16023 [00:01<00:09, 1489.51it/s]pruning bad partition(provide_output=False):  16%|█▌        | 2559/16023 [00:01<00:08, 1502.34it/s]pruning bad partition(provide_output=False):  17%|█▋        | 2710/16023 [00:01<00:08, 1500.28it/s]pruning bad partition(provide_output=False):  18%|█▊        | 2861/16023 [00:01<00:08, 1499.77it/s]pruning bad partition(provide_output=False):  19%|█▉        | 3011/16023 [00:02<00:08, 1499.68it/s]pruning bad partition(provide_output=False):  20%|█▉        | 3161/16023 [00:02<00:08, 1491.57it/s]pruning bad partition(provide_output=False):  21%|██        | 3311/16023 [00:02<00:08, 1483.86it/s]pruning bad partition(provide_output=False):  22%|██▏       | 3460/16023 [00:02<00:08, 1475.73it/s]pruning bad partition(provide_output=False):  23%|██▎       | 3610/16023 [00:02<00:08, 1480.80it/s]pruning bad partition(provide_output=False):  23%|██▎       | 3764/16023 [00:02<00:08, 1497.72it/s]pruning bad partition(provide_output=False):  24%|██▍       | 3917/16023 [00:02<00:08, 1506.62it/s]pruning bad partition(provide_output=False):  25%|██▌       | 4068/16023 [00:02<00:07, 1504.93it/s]pruning bad partition(provide_output=False):  26%|██▋       | 4219/16023 [00:02<00:07, 1498.60it/s]pruning bad partition(provide_output=False):  27%|██▋       | 4371/16023 [00:02<00:07, 1503.22it/s]pruning bad partition(provide_output=False):  28%|██▊       | 4522/16023 [00:03<00:07, 1497.92it/s]pruning bad partition(provide_output=False):  29%|██▉       | 4672/16023 [00:03<00:07, 1495.58it/s]pruning bad partition(provide_output=False):  30%|███       | 4825/16023 [00:03<00:07, 1503.92it/s]pruning bad partition(provide_output=False):  31%|███       | 4976/16023 [00:03<00:07, 1478.02it/s]pruning bad partition(provide_output=False):  32%|███▏      | 5124/16023 [00:03<00:07, 1475.73it/s]pruning bad partition(provide_output=False):  33%|███▎      | 5272/16023 [00:03<00:07, 1473.87it/s]pruning bad partition(provide_output=False):  34%|███▍      | 5420/16023 [00:03<00:07, 1471.81it/s]pruning bad partition(provide_output=False):  35%|███▍      | 5568/16023 [00:03<00:07, 1468.17it/s]pruning bad partition(provide_output=False):  36%|███▌      | 5717/16023 [00:03<00:06, 1473.74it/s]pruning bad partition(provide_output=False):  37%|███▋      | 5865/16023 [00:03<00:07, 1428.57it/s]pruning bad partition(provide_output=False):  38%|███▊      | 6012/16023 [00:04<00:06, 1440.23it/s]pruning bad partition(provide_output=False):  38%|███▊      | 6160/16023 [00:04<00:06, 1449.83it/s]pruning bad partition(provide_output=False):  39%|███▉      | 6307/16023 [00:04<00:06, 1454.43it/s]pruning bad partition(provide_output=False):  40%|████      | 6462/16023 [00:04<00:06, 1481.46it/s]pruning bad partition(provide_output=False):  41%|████▏     | 6614/16023 [00:04<00:06, 1491.95it/s]pruning bad partition(provide_output=False):  42%|████▏     | 6764/16023 [00:04<00:06, 1493.90it/s]pruning bad partition(provide_output=False):  43%|████▎     | 6919/16023 [00:04<00:06, 1507.30it/s]pruning bad partition(provide_output=False):  44%|████▍     | 7071/16023 [00:04<00:05, 1510.84it/s]pruning bad partition(provide_output=False):  45%|████▌     | 7223/16023 [00:04<00:05, 1499.43it/s]pruning bad partition(provide_output=False):  46%|████▌     | 7373/16023 [00:04<00:05, 1454.27it/s]pruning bad partition(provide_output=False):  47%|████▋     | 7526/16023 [00:05<00:05, 1474.79it/s]pruning bad partition(provide_output=False):  48%|████▊     | 7676/16023 [00:05<00:05, 1480.31it/s]pruning bad partition(provide_output=False):  49%|████▉     | 7825/16023 [00:05<00:05, 1478.03it/s]pruning bad partition(provide_output=False):  50%|████▉     | 7978/16023 [00:05<00:05, 1492.36it/s]pruning bad partition(provide_output=False):  51%|█████     | 8129/16023 [00:05<00:05, 1497.08it/s]pruning bad partition(provide_output=False):  52%|█████▏    | 8281/16023 [00:05<00:05, 1501.01it/s]pruning bad partition(provide_output=False):  53%|█████▎    | 8436/16023 [00:05<00:05, 1514.81it/s]pruning bad partition(provide_output=False):  54%|█████▎    | 8588/16023 [00:05<00:04, 1512.50it/s]pruning bad partition(provide_output=False):  55%|█████▍    | 8740/16023 [00:05<00:05, 1441.96it/s]pruning bad partition(provide_output=False):  55%|█████▌    | 8888/16023 [00:05<00:04, 1449.83it/s]pruning bad partition(provide_output=False):  56%|█████▋    | 9039/16023 [00:06<00:04, 1464.62it/s]pruning bad partition(provide_output=False):  57%|█████▋    | 9189/16023 [00:06<00:04, 1474.62it/s]pruning bad partition(provide_output=False):  58%|█████▊    | 9337/16023 [00:06<00:04, 1474.82it/s]pruning bad partition(provide_output=False):  59%|█████▉    | 9485/16023 [00:06<00:04, 1410.77it/s]pruning bad partition(provide_output=False):  60%|██████    | 9637/16023 [00:06<00:04, 1440.11it/s]pruning bad partition(provide_output=False):  61%|██████    | 9786/16023 [00:06<00:04, 1453.17it/s]pruning bad partition(provide_output=False):  62%|██████▏   | 9937/16023 [00:06<00:04, 1468.73it/s]pruning bad partition(provide_output=False):  63%|██████▎   | 10085/16023 [00:06<00:04, 1464.27it/s]pruning bad partition(provide_output=False):  64%|██████▍   | 10234/16023 [00:06<00:03, 1469.76it/s]pruning bad partition(provide_output=False):  65%|██████▍   | 10387/16023 [00:07<00:03, 1485.69it/s]pruning bad partition(provide_output=False):  66%|██████▌   | 10536/16023 [00:07<00:03, 1477.12it/s]pruning bad partition(provide_output=False):  67%|██████▋   | 10684/16023 [00:07<00:03, 1442.85it/s]pruning bad partition(provide_output=False):  68%|██████▊   | 10838/16023 [00:07<00:03, 1470.42it/s]pruning bad partition(provide_output=False):  69%|██████▊   | 10990/16023 [00:07<00:03, 1482.47it/s]pruning bad partition(provide_output=False):  70%|██████▉   | 11140/16023 [00:07<00:03, 1487.50it/s]pruning bad partition(provide_output=False):  70%|███████   | 11290/16023 [00:07<00:03, 1489.33it/s]pruning bad partition(provide_output=False):  71%|███████▏  | 11441/16023 [00:07<00:03, 1494.66it/s]pruning bad partition(provide_output=False):  72%|███████▏  | 11593/16023 [00:07<00:02, 1500.71it/s]pruning bad partition(provide_output=False):  73%|███████▎  | 11744/16023 [00:07<00:02, 1495.91it/s]pruning bad partition(provide_output=False):  74%|███████▍  | 11897/16023 [00:08<00:02, 1504.22it/s]pruning bad partition(provide_output=False):  75%|███████▌  | 12048/16023 [00:08<00:02, 1486.11it/s]pruning bad partition(provide_output=False):  76%|███████▌  | 12201/16023 [00:08<00:02, 1497.30it/s]pruning bad partition(provide_output=False):  77%|███████▋  | 12351/16023 [00:08<00:02, 1495.84it/s]pruning bad partition(provide_output=False):  78%|███████▊  | 12502/16023 [00:08<00:02, 1497.13it/s]pruning bad partition(provide_output=False):  79%|███████▉  | 12653/16023 [00:08<00:02, 1498.19it/s]pruning bad partition(provide_output=False):  80%|███████▉  | 12805/16023 [00:08<00:02, 1502.28it/s]pruning bad partition(provide_output=False):  81%|████████  | 12956/16023 [00:08<00:02, 1490.96it/s]pruning bad partition(provide_output=False):  82%|████████▏ | 13108/16023 [00:08<00:01, 1496.65it/s]pruning bad partition(provide_output=False):  83%|████████▎ | 13259/16023 [00:08<00:01, 1498.38it/s]pruning bad partition(provide_output=False):  84%|████████▎ | 13411/16023 [00:09<00:01, 1504.23it/s]pruning bad partition(provide_output=False):  85%|████████▍ | 13564/16023 [00:09<00:01, 1510.56it/s]pruning bad partition(provide_output=False):  86%|████████▌ | 13716/16023 [00:09<00:01, 1509.16it/s]pruning bad partition(provide_output=False):  87%|████████▋ | 13867/16023 [00:09<00:01, 1502.65it/s]pruning bad partition(provide_output=False):  87%|████████▋ | 14018/16023 [00:09<00:01, 1496.94it/s]pruning bad partition(provide_output=False):  88%|████████▊ | 14168/16023 [00:09<00:01, 1496.09it/s]pruning bad partition(provide_output=False):  89%|████████▉ | 14318/16023 [00:09<00:01, 1491.55it/s]pruning bad partition(provide_output=False):  90%|█████████ | 14468/16023 [00:09<00:01, 1482.90it/s]pruning bad partition(provide_output=False):  91%|█████████ | 14617/16023 [00:09<00:00, 1482.19it/s]pruning bad partition(provide_output=False):  92%|█████████▏| 14766/16023 [00:09<00:00, 1484.15it/s]pruning bad partition(provide_output=False):  93%|█████████▎| 14915/16023 [00:10<00:00, 1484.17it/s]pruning bad partition(provide_output=False):  94%|█████████▍| 15064/16023 [00:10<00:00, 1414.26it/s]pruning bad partition(provide_output=False):  95%|█████████▍| 15211/16023 [00:10<00:00, 1428.25it/s]pruning bad partition(provide_output=False):  96%|█████████▌| 15362/16023 [00:10<00:00, 1451.78it/s]pruning bad partition(provide_output=False):  97%|█████████▋| 15513/16023 [00:10<00:00, 1465.54it/s]pruning bad partition(provide_output=False):  98%|█████████▊| 15660/16023 [00:10<00:00, 1466.38it/s]pruning bad partition(provide_output=False):  99%|█████████▊| 15807/16023 [00:10<00:00, 1440.68it/s]pruning bad partition(provide_output=False): 100%|█████████▉| 15952/16023 [00:10<00:00, 1431.95it/s]pruning bad partition(provide_output=False): 100%|██████████| 16023/16023 [00:10<00:00, 1480.44it/s]
after pruning bad partition: len(connected_partitions)=974
pruning bad para partition:   0%|          | 0/974 [00:00<?, ?it/s]pruning bad para partition:   4%|▍         | 41/974 [00:00<00:02, 406.89it/s]pruning bad para partition:   8%|▊         | 82/974 [00:00<00:02, 358.36it/s]pruning bad para partition:  12%|█▏        | 119/974 [00:00<00:02, 343.64it/s]pruning bad para partition:  16%|█▌        | 154/974 [00:00<00:02, 343.18it/s]pruning bad para partition:  20%|█▉        | 193/974 [00:00<00:02, 355.71it/s]pruning bad para partition:  24%|██▎       | 229/974 [00:00<00:02, 353.21it/s]pruning bad para partition:  27%|██▋       | 265/974 [00:00<00:02, 351.74it/s]pruning bad para partition:  31%|███       | 301/974 [00:00<00:01, 345.11it/s]pruning bad para partition:  34%|███▍      | 336/974 [00:00<00:01, 340.87it/s]pruning bad para partition:  38%|███▊      | 374/974 [00:01<00:01, 350.61it/s]pruning bad para partition:  42%|████▏     | 410/974 [00:01<00:01, 349.50it/s]pruning bad para partition:  46%|████▌     | 445/974 [00:01<00:01, 349.31it/s]pruning bad para partition:  49%|████▉     | 480/974 [00:01<00:01, 339.33it/s]pruning bad para partition:  53%|█████▎    | 517/974 [00:01<00:01, 346.55it/s]pruning bad para partition:  57%|█████▋    | 554/974 [00:01<00:01, 351.24it/s]pruning bad para partition:  61%|██████    | 592/974 [00:01<00:01, 355.07it/s]pruning bad para partition:  64%|██████▍   | 628/974 [00:01<00:00, 349.39it/s]pruning bad para partition:  68%|██████▊   | 663/974 [00:01<00:00, 344.26it/s]pruning bad para partition:  72%|███████▏  | 699/974 [00:02<00:00, 348.29it/s]pruning bad para partition:  75%|███████▌  | 734/974 [00:02<00:00, 345.97it/s]pruning bad para partition:  79%|███████▉  | 769/974 [00:02<00:00, 345.00it/s]pruning bad para partition:  83%|████████▎ | 805/974 [00:02<00:00, 349.31it/s]pruning bad para partition:  86%|████████▌ | 840/974 [00:02<00:00, 345.35it/s]pruning bad para partition:  90%|████████▉ | 876/974 [00:02<00:00, 347.49it/s]pruning bad para partition:  94%|█████████▍| 916/974 [00:02<00:00, 361.31it/s]pruning bad para partition:  98%|█████████▊| 953/974 [00:02<00:00, 352.26it/s]pruning bad para partition: 100%|██████████| 974/974 [00:02<00:00, 349.54it/s]
after pruning bad para partition: len(connected_partitions)=740
max_metric:  536870912.0
tall_and_thin tensors: 10
expand and pruning bad ai partition:   0%|          | 0/740 [00:00<?, ?it/s]expand and pruning bad ai partition:   0%|          | 2/740 [00:01<07:12,  1.71it/s]expand and pruning bad ai partition:   1%|▏         | 10/740 [00:01<01:50,  6.61it/s]expand and pruning bad ai partition:   3%|▎         | 19/740 [00:02<01:02, 11.47it/s]expand and pruning bad ai partition:   3%|▎         | 25/740 [00:02<00:55, 12.80it/s]expand and pruning bad ai partition:   5%|▍         | 35/740 [00:02<00:33, 21.25it/s]expand and pruning bad ai partition:   5%|▌         | 40/740 [00:02<00:30, 22.75it/s]expand and pruning bad ai partition:   6%|▌         | 44/740 [00:02<00:29, 23.92it/s]expand and pruning bad ai partition:   6%|▋         | 48/740 [00:03<00:30, 22.86it/s]expand and pruning bad ai partition:   7%|▋         | 52/740 [00:03<00:31, 21.66it/s]expand and pruning bad ai partition:   8%|▊         | 56/740 [00:03<00:32, 21.01it/s]expand and pruning bad ai partition:   8%|▊         | 59/740 [00:04<00:52, 12.91it/s]expand and pruning bad ai partition:   9%|▉         | 66/740 [00:08<03:46,  2.97it/s]expand and pruning bad ai partition:   9%|▉         | 69/740 [00:09<03:12,  3.49it/s]expand and pruning bad ai partition:  10%|▉         | 73/740 [00:09<02:21,  4.70it/s]expand and pruning bad ai partition:  10%|█         | 76/740 [00:09<02:09,  5.12it/s]expand and pruning bad ai partition:  11%|█▏        | 84/740 [00:10<01:30,  7.26it/s]expand and pruning bad ai partition:  12%|█▏        | 87/740 [00:10<01:36,  6.79it/s]expand and pruning bad ai partition:  13%|█▎        | 93/740 [00:10<01:05,  9.93it/s]expand and pruning bad ai partition:  14%|█▍        | 105/740 [00:11<00:35, 17.77it/s]expand and pruning bad ai partition:  15%|█▍        | 109/740 [00:20<05:25,  1.94it/s]expand and pruning bad ai partition:  15%|█▍        | 109/740 [00:36<05:25,  1.94it/s]expand and pruning bad ai partition:  15%|█▌        | 112/740 [00:40<16:10,  1.54s/it]expand and pruning bad ai partition:  15%|█▌        | 113/740 [00:41<15:48,  1.51s/it]expand and pruning bad ai partition:  16%|█▌        | 118/740 [00:41<10:15,  1.01it/s]expand and pruning bad ai partition:  17%|█▋        | 125/740 [00:41<06:02,  1.70it/s]expand and pruning bad ai partition:  18%|█▊        | 130/740 [00:41<04:19,  2.35it/s]expand and pruning bad ai partition:  18%|█▊        | 133/740 [00:42<03:48,  2.66it/s]expand and pruning bad ai partition:  19%|█▉        | 140/740 [00:42<02:18,  4.33it/s]expand and pruning bad ai partition:  19%|█▉        | 144/740 [00:43<02:25,  4.10it/s]expand and pruning bad ai partition:  20%|█▉        | 147/740 [00:43<02:00,  4.93it/s]expand and pruning bad ai partition:  20%|██        | 150/740 [00:43<01:47,  5.51it/s]expand and pruning bad ai partition:  21%|██▏       | 158/740 [00:44<01:00,  9.61it/s]expand and pruning bad ai partition:  22%|██▏       | 162/740 [00:45<01:28,  6.56it/s]expand and pruning bad ai partition:  22%|██▏       | 165/740 [00:45<01:27,  6.54it/s]expand and pruning bad ai partition:  23%|██▎       | 167/740 [00:55<08:45,  1.09it/s]expand and pruning bad ai partition:  23%|██▎       | 169/740 [00:56<08:04,  1.18it/s]expand and pruning bad ai partition:  24%|██▎       | 174/740 [00:56<04:58,  1.89it/s]expand and pruning bad ai partition:  25%|██▍       | 183/740 [00:56<02:27,  3.79it/s]expand and pruning bad ai partition:  25%|██▌       | 187/740 [00:56<01:54,  4.81it/s]expand and pruning bad ai partition:  26%|██▌       | 191/740 [00:57<01:35,  5.74it/s]expand and pruning bad ai partition:  26%|██▌       | 194/740 [00:57<01:38,  5.55it/s]expand and pruning bad ai partition:  27%|██▋       | 201/740 [00:58<01:17,  6.95it/s]expand and pruning bad ai partition:  27%|██▋       | 203/740 [00:59<01:27,  6.11it/s]expand and pruning bad ai partition:  28%|██▊       | 207/740 [00:59<01:09,  7.70it/s]expand and pruning bad ai partition:  28%|██▊       | 209/740 [00:59<01:03,  8.42it/s]expand and pruning bad ai partition:  29%|██▊       | 212/740 [00:59<00:52, 10.05it/s]expand and pruning bad ai partition:  29%|██▉       | 214/740 [00:59<01:02,  8.36it/s]expand and pruning bad ai partition:  29%|██▉       | 218/740 [01:00<00:46, 11.12it/s]expand and pruning bad ai partition:  30%|███       | 224/740 [01:00<00:30, 16.73it/s]expand and pruning bad ai partition:  31%|███       | 227/740 [01:00<00:34, 14.94it/s]expand and pruning bad ai partition:  31%|███       | 230/740 [01:03<02:31,  3.37it/s]expand and pruning bad ai partition:  31%|███▏      | 232/740 [01:03<02:14,  3.78it/s]expand and pruning bad ai partition:  32%|███▏      | 236/740 [01:03<01:31,  5.50it/s]expand and pruning bad ai partition:  32%|███▏      | 238/740 [01:04<01:42,  4.88it/s]expand and pruning bad ai partition:  33%|███▎      | 244/740 [01:04<01:00,  8.24it/s]expand and pruning bad ai partition:  34%|███▎      | 248/740 [01:05<01:38,  5.00it/s]expand and pruning bad ai partition:  34%|███▍      | 250/740 [01:06<01:32,  5.31it/s]expand and pruning bad ai partition:  34%|███▍      | 252/740 [01:11<05:44,  1.42it/s]expand and pruning bad ai partition:  34%|███▍      | 253/740 [01:12<05:33,  1.46it/s]expand and pruning bad ai partition:  34%|███▍      | 254/740 [01:12<05:22,  1.51it/s]expand and pruning bad ai partition:  34%|███▍      | 255/740 [01:12<04:35,  1.76it/s]expand and pruning bad ai partition:  35%|███▌      | 259/740 [01:13<02:32,  3.15it/s]expand and pruning bad ai partition:  36%|███▋      | 269/740 [01:15<02:03,  3.81it/s]expand and pruning bad ai partition:  37%|███▋      | 271/740 [01:15<01:54,  4.11it/s]expand and pruning bad ai partition:  38%|███▊      | 281/740 [01:16<01:20,  5.70it/s]expand and pruning bad ai partition:  38%|███▊      | 282/740 [01:17<01:19,  5.79it/s]expand and pruning bad ai partition:  39%|███▉      | 290/740 [01:19<01:40,  4.46it/s]expand and pruning bad ai partition:  39%|███▉      | 291/740 [01:19<01:37,  4.60it/s]expand and pruning bad ai partition:  40%|████      | 296/740 [01:19<01:11,  6.18it/s]expand and pruning bad ai partition:  40%|████      | 298/740 [01:19<01:04,  6.84it/s]expand and pruning bad ai partition:  41%|████      | 301/740 [01:20<00:54,  8.12it/s]expand and pruning bad ai partition:  42%|████▏     | 310/740 [01:21<00:54,  7.89it/s]expand and pruning bad ai partition:  42%|████▏     | 312/740 [01:21<00:50,  8.47it/s]expand and pruning bad ai partition:  43%|████▎     | 315/740 [01:21<00:56,  7.50it/s]expand and pruning bad ai partition:  43%|████▎     | 319/740 [01:22<00:49,  8.47it/s]expand and pruning bad ai partition:  44%|████▍     | 326/740 [01:22<00:43,  9.50it/s]expand and pruning bad ai partition:  44%|████▍     | 328/740 [01:23<00:42,  9.60it/s]expand and pruning bad ai partition:  45%|████▍     | 330/740 [01:23<00:44,  9.12it/s]expand and pruning bad ai partition:  45%|████▌     | 335/740 [01:23<00:37, 10.90it/s]expand and pruning bad ai partition:  46%|████▌     | 338/740 [01:24<00:46,  8.64it/s]expand and pruning bad ai partition:  46%|████▌     | 340/740 [01:24<00:49,  8.00it/s]expand and pruning bad ai partition:  46%|████▌     | 341/740 [01:29<04:26,  1.50it/s]expand and pruning bad ai partition:  46%|████▌     | 342/740 [01:29<04:18,  1.54it/s]expand and pruning bad ai partition:  46%|████▋     | 343/740 [01:30<03:51,  1.71it/s]expand and pruning bad ai partition:  47%|████▋     | 345/740 [01:30<02:42,  2.43it/s]expand and pruning bad ai partition:  47%|████▋     | 348/740 [01:34<05:48,  1.12it/s]expand and pruning bad ai partition:  47%|████▋     | 349/740 [01:35<05:01,  1.30it/s]expand and pruning bad ai partition:  48%|████▊     | 357/740 [01:35<02:02,  3.12it/s]expand and pruning bad ai partition:  49%|████▉     | 361/740 [01:40<03:42,  1.70it/s]expand and pruning bad ai partition:  49%|████▉     | 363/740 [01:42<04:20,  1.45it/s]expand and pruning bad ai partition:  50%|████▉     | 367/740 [01:43<03:24,  1.83it/s]expand and pruning bad ai partition:  50%|████▉     | 368/740 [01:43<03:06,  1.99it/s]expand and pruning bad ai partition:  50%|█████     | 373/740 [01:44<01:48,  3.37it/s]expand and pruning bad ai partition:  51%|█████     | 377/740 [01:44<01:17,  4.68it/s]expand and pruning bad ai partition:  52%|█████▏    | 385/740 [01:44<00:41,  8.45it/s]expand and pruning bad ai partition:  52%|█████▏    | 388/740 [01:44<00:40,  8.78it/s]expand and pruning bad ai partition:  53%|█████▎    | 392/740 [01:44<00:32, 10.79it/s]expand and pruning bad ai partition:  53%|█████▎    | 395/740 [01:45<00:32, 10.74it/s]expand and pruning bad ai partition:  54%|█████▍    | 402/740 [01:45<00:23, 14.16it/s]expand and pruning bad ai partition:  56%|█████▌    | 413/740 [01:45<00:16, 19.99it/s]expand and pruning bad ai partition:  57%|█████▋    | 424/740 [01:46<00:13, 23.41it/s]expand and pruning bad ai partition:  58%|█████▊    | 430/740 [01:46<00:11, 27.12it/s]expand and pruning bad ai partition:  59%|█████▊    | 434/740 [01:46<00:13, 22.40it/s]expand and pruning bad ai partition:  59%|█████▉    | 437/740 [01:46<00:17, 17.65it/s]expand and pruning bad ai partition:  60%|█████▉    | 442/740 [01:47<00:21, 13.78it/s]expand and pruning bad ai partition:  60%|██████    | 444/740 [01:47<00:22, 12.94it/s]expand and pruning bad ai partition:  60%|██████    | 446/740 [01:49<01:14,  3.96it/s]expand and pruning bad ai partition:  61%|██████    | 452/740 [01:49<00:44,  6.42it/s]expand and pruning bad ai partition:  62%|██████▏   | 457/740 [01:50<00:40,  6.92it/s]expand and pruning bad ai partition:  62%|██████▏   | 460/740 [01:53<01:27,  3.21it/s]expand and pruning bad ai partition:  63%|██████▎   | 464/740 [01:53<01:04,  4.28it/s]expand and pruning bad ai partition:  64%|██████▍   | 473/740 [01:53<00:36,  7.32it/s]expand and pruning bad ai partition:  64%|██████▍   | 475/740 [01:54<00:36,  7.34it/s]expand and pruning bad ai partition:  64%|██████▍   | 477/740 [01:59<02:18,  1.90it/s]expand and pruning bad ai partition:  65%|██████▍   | 479/740 [02:03<03:46,  1.15it/s]expand and pruning bad ai partition:  65%|██████▌   | 483/740 [02:04<02:31,  1.69it/s]expand and pruning bad ai partition:  66%|██████▌   | 487/740 [02:04<01:43,  2.45it/s]expand and pruning bad ai partition:  66%|██████▋   | 492/740 [02:04<01:09,  3.55it/s]expand and pruning bad ai partition:  67%|██████▋   | 497/740 [02:05<00:54,  4.44it/s]expand and pruning bad ai partition:  68%|██████▊   | 500/740 [02:05<00:46,  5.11it/s]expand and pruning bad ai partition:  68%|██████▊   | 504/740 [02:05<00:35,  6.68it/s]expand and pruning bad ai partition:  69%|██████▉   | 509/740 [02:06<00:28,  8.23it/s]expand and pruning bad ai partition:  70%|███████   | 519/740 [02:06<00:14, 15.22it/s]expand and pruning bad ai partition:  71%|███████   | 525/740 [02:06<00:17, 12.19it/s]expand and pruning bad ai partition:  71%|███████▏  | 529/740 [02:07<00:15, 13.83it/s]expand and pruning bad ai partition:  72%|███████▏  | 534/740 [02:08<00:24,  8.54it/s]expand and pruning bad ai partition:  73%|███████▎  | 537/740 [02:08<00:20,  9.70it/s]expand and pruning bad ai partition:  73%|███████▎  | 540/740 [02:09<00:33,  5.94it/s]expand and pruning bad ai partition:  74%|███████▎  | 544/740 [02:09<00:27,  7.06it/s]expand and pruning bad ai partition:  74%|███████▍  | 546/740 [02:13<01:15,  2.58it/s]expand and pruning bad ai partition:  74%|███████▍  | 550/740 [02:13<00:53,  3.53it/s]expand and pruning bad ai partition:  76%|███████▌  | 563/740 [02:13<00:20,  8.56it/s]expand and pruning bad ai partition:  77%|███████▋  | 568/740 [02:13<00:16, 10.19it/s]expand and pruning bad ai partition:  77%|███████▋  | 573/740 [02:23<01:36,  1.73it/s]expand and pruning bad ai partition:  78%|███████▊  | 577/740 [02:23<01:13,  2.21it/s]expand and pruning bad ai partition:  78%|███████▊  | 580/740 [02:26<01:25,  1.86it/s]expand and pruning bad ai partition:  80%|███████▉  | 590/740 [02:27<00:50,  2.99it/s]expand and pruning bad ai partition:  81%|████████  | 596/740 [02:29<00:50,  2.84it/s]expand and pruning bad ai partition:  81%|████████▏ | 602/740 [02:29<00:36,  3.79it/s]expand and pruning bad ai partition:  82%|████████▏ | 604/740 [02:30<00:35,  3.78it/s]expand and pruning bad ai partition:  82%|████████▏ | 610/740 [02:30<00:23,  5.59it/s]expand and pruning bad ai partition:  83%|████████▎ | 614/740 [02:31<00:26,  4.78it/s]expand and pruning bad ai partition:  84%|████████▎ | 619/740 [02:31<00:18,  6.53it/s]expand and pruning bad ai partition:  85%|████████▍ | 627/740 [02:33<00:16,  6.74it/s]expand and pruning bad ai partition:  85%|████████▌ | 630/740 [02:33<00:14,  7.68it/s]expand and pruning bad ai partition:  86%|████████▌ | 636/740 [02:33<00:09, 10.91it/s]expand and pruning bad ai partition:  86%|████████▋ | 640/740 [02:33<00:07, 12.59it/s]expand and pruning bad ai partition:  87%|████████▋ | 643/740 [02:33<00:07, 12.19it/s]expand and pruning bad ai partition:  88%|████████▊ | 652/740 [02:34<00:05, 16.33it/s]expand and pruning bad ai partition:  89%|████████▊ | 655/740 [02:35<00:10,  7.94it/s]expand and pruning bad ai partition:  89%|████████▉ | 657/740 [02:35<00:12,  6.76it/s]expand and pruning bad ai partition:  89%|████████▉ | 662/740 [02:36<00:10,  7.15it/s]expand and pruning bad ai partition:  90%|████████▉ | 664/740 [02:36<00:10,  7.20it/s]expand and pruning bad ai partition:  90%|█████████ | 667/740 [02:47<01:14,  1.02s/it]expand and pruning bad ai partition:  90%|█████████ | 669/740 [02:47<01:02,  1.14it/s]expand and pruning bad ai partition:  91%|█████████ | 675/740 [02:48<00:31,  2.06it/s]expand and pruning bad ai partition:  92%|█████████▏| 684/740 [02:48<00:14,  3.79it/s]expand and pruning bad ai partition:  94%|█████████▍| 696/740 [02:48<00:06,  6.99it/s]expand and pruning bad ai partition:  95%|█████████▌| 704/740 [02:48<00:03,  9.77it/s]expand and pruning bad ai partition:  96%|█████████▌| 710/740 [02:48<00:02, 12.17it/s]expand and pruning bad ai partition:  97%|█████████▋| 715/740 [02:48<00:01, 14.65it/s]expand and pruning bad ai partition:  97%|█████████▋| 720/740 [02:51<00:03,  5.83it/s]expand and pruning bad ai partition:  98%|█████████▊| 727/740 [02:52<00:02,  5.75it/s]expand and pruning bad ai partition:  99%|█████████▉| 733/740 [02:52<00:00,  7.38it/s]expand and pruning bad ai partition:  99%|█████████▉| 736/740 [02:54<00:00,  5.57it/s]expand and pruning bad ai partition: 100%|██████████| 740/740 [02:54<00:00,  4.25it/s]
after expand and pruning bad ai partition: len(connected_partitions)=32
pruning bad partition(provide_output=True):   0%|          | 0/32 [00:00<?, ?it/s]pruning bad partition(provide_output=True): 100%|██████████| 32/32 [00:00<00:00, 1768.07it/s]
after pruning bad partition(provide_output=True): len(connected_partitions)=10
module {
  func.func @KeyFormer(%arg0: tensor<1x4096x32x128xf16>, %arg1: tensor<1x4096x32x128xf16>, %arg2: tensor<1x4096x32x128xf16>, %arg3: tensor<1x32x4096x4096xf32>) -> (tensor<1x4096x32x128xf16>, tensor<1x32x4096xf32>) {
    %cst = arith.constant dense<1.500000e+00> : tensor<1xf32>
    %cst_0 = arith.constant dense<1.131250e+01> : tensor<1xf16>
    %0 = asuka.trilu diagonal = 1, is_upper = true, shape = [4096, 4096], val = 0xFC00 : f16
    %1 = asuka.permute %arg0, dims = [0, 2, 1, 3] : (tensor<1x4096x32x128xf16>) -> tensor<1x32x4096x128xf16>
    %2 = asuka.permute %arg2, dims = [0, 2, 1, 3] : (tensor<1x4096x32x128xf16>) -> tensor<1x32x4096x128xf16>
    %3 = asuka.permute %arg1, dims = [0, 2, 3, 1] : (tensor<1x4096x32x128xf16>) -> tensor<1x32x128x4096xf16>
    %4 = asuka.dot %1, %3 : (tensor<1x32x4096x128xf16>, tensor<1x32x128x4096xf16>) -> tensor<1x32x4096x4096xf16>
    %5 = asuka.div %4, %cst_0 : (tensor<1x32x4096x4096xf16>, tensor<1xf16>) -> tensor<1x32x4096x4096xf16>
    %6 = asuka.add %5, %0 : (tensor<1x32x4096x4096xf16>, tensor<4096x4096xf16>) -> tensor<1x32x4096x4096xf16>
    %7 = asuka.convert %6, type = f32 : (tensor<1x32x4096x4096xf16>) -> tensor<1x32x4096x4096xf32>
    %8 = asuka.exp %7 : (tensor<1x32x4096x4096xf32>) -> tensor<1x32x4096x4096xf32>
    %9 = asuka.reduce(%8), dim = -1, op =  ADD, keep_dim = true : (tensor<1x32x4096x4096xf32>) -> tensor<1x32x4096x1xf32>
    %10 = asuka.div %8, %9 : (tensor<1x32x4096x4096xf32>, tensor<1x32x4096x1xf32>) -> tensor<1x32x4096x4096xf32>
    %11 = asuka.convert %10, type = f16 : (tensor<1x32x4096x4096xf32>) -> tensor<1x32x4096x4096xf16>
    %12 = asuka.dot %11, %2 : (tensor<1x32x4096x4096xf16>, tensor<1x32x4096x128xf16>) -> tensor<1x32x4096x128xf16>
    %13 = asuka.permute %12, dims = [0, 2, 1, 3] : (tensor<1x32x4096x128xf16>) -> tensor<1x4096x32x128xf16>
    %14 = asuka.log %arg3 : (tensor<1x32x4096x4096xf32>) -> tensor<1x32x4096x4096xf32>
    %15 = asuka.neg %14 : (tensor<1x32x4096x4096xf32>) -> tensor<1x32x4096x4096xf32>
    %16 = asuka.add %7, %15 : (tensor<1x32x4096x4096xf32>, tensor<1x32x4096x4096xf32>) -> tensor<1x32x4096x4096xf32>
    %17 = asuka.div %16, %cst : (tensor<1x32x4096x4096xf32>, tensor<1xf32>) -> tensor<1x32x4096x4096xf32>
    %18 = asuka.exp %17 : (tensor<1x32x4096x4096xf32>) -> tensor<1x32x4096x4096xf32>
    %19 = asuka.reduce(%18), dim = -1, op =  ADD, keep_dim = true : (tensor<1x32x4096x4096xf32>) -> tensor<1x32x4096x1xf32>
    %20 = asuka.div %18, %19 : (tensor<1x32x4096x4096xf32>, tensor<1x32x4096x1xf32>) -> tensor<1x32x4096x4096xf32>
    %21 = asuka.reduce(%20), dim = 2, op =  ADD, keep_dim = false : (tensor<1x32x4096x4096xf32>) -> tensor<1x32x4096xf32>
    return %13, %21 : tensor<1x4096x32x128xf16>, tensor<1x32x4096xf32>
  }
  asuka.kernel @KeyFormer_p0(%arg0: tensor<1x4096x32x128xf16>, %arg1: tensor<1x4096x32x128xf16>, %arg2: tensor<1x4096x32x128xf16>, %arg3: tensor<1x32x4096x4096xf32>) -> (tensor<1x32x4096x1xf32>, tensor<1x4096x32x128xf16>, tensor<1x32x4096x1xf32>) {
    %cst = arith.constant dense<1.500000e+00> : tensor<1xf32>
    %cst_0 = arith.constant dense<1.131250e+01> : tensor<1xf16>
    %0 = asuka.trilu diagonal = 1, is_upper = true, shape = [4096, 4096], val = 0xFC00 : f16
    %1 = asuka.permute %arg0, dims = [0, 2, 1, 3] : (tensor<1x4096x32x128xf16>) -> tensor<1x32x4096x128xf16>
    %2 = asuka.permute %arg1, dims = [0, 2, 1, 3] : (tensor<1x4096x32x128xf16>) -> tensor<1x32x4096x128xf16>
    %3 = asuka.permute %arg2, dims = [0, 2, 3, 1] : (tensor<1x4096x32x128xf16>) -> tensor<1x32x128x4096xf16>
    %4 = asuka.dot %1, %3 : (tensor<1x32x4096x128xf16>, tensor<1x32x128x4096xf16>) -> tensor<1x32x4096x4096xf16>
    %5 = asuka.div %4, %cst_0 : (tensor<1x32x4096x4096xf16>, tensor<1xf16>) -> tensor<1x32x4096x4096xf16>
    %6 = asuka.add %5, %0 : (tensor<1x32x4096x4096xf16>, tensor<4096x4096xf16>) -> tensor<1x32x4096x4096xf16>
    %7 = asuka.convert %6, type = f32 : (tensor<1x32x4096x4096xf16>) -> tensor<1x32x4096x4096xf32>
    %8 = asuka.exp %7 : (tensor<1x32x4096x4096xf32>) -> tensor<1x32x4096x4096xf32>
    %9 = asuka.reduce(%8), dim = -1, op =  ADD, keep_dim = true : (tensor<1x32x4096x4096xf32>) -> tensor<1x32x4096x1xf32>
    %10 = asuka.div %8, %9 : (tensor<1x32x4096x4096xf32>, tensor<1x32x4096x1xf32>) -> tensor<1x32x4096x4096xf32>
    %11 = asuka.convert %10, type = f16 : (tensor<1x32x4096x4096xf32>) -> tensor<1x32x4096x4096xf16>
    %12 = asuka.dot %11, %2 : (tensor<1x32x4096x4096xf16>, tensor<1x32x4096x128xf16>) -> tensor<1x32x4096x128xf16>
    %13 = asuka.permute %12, dims = [0, 2, 1, 3] : (tensor<1x32x4096x128xf16>) -> tensor<1x4096x32x128xf16>
    %14 = asuka.log %arg3 : (tensor<1x32x4096x4096xf32>) -> tensor<1x32x4096x4096xf32>
    %15 = asuka.neg %14 : (tensor<1x32x4096x4096xf32>) -> tensor<1x32x4096x4096xf32>
    %16 = asuka.add %7, %15 : (tensor<1x32x4096x4096xf32>, tensor<1x32x4096x4096xf32>) -> tensor<1x32x4096x4096xf32>
    %17 = asuka.div %16, %cst : (tensor<1x32x4096x4096xf32>, tensor<1xf32>) -> tensor<1x32x4096x4096xf32>
    %18 = asuka.exp %17 : (tensor<1x32x4096x4096xf32>) -> tensor<1x32x4096x4096xf32>
    %19 = asuka.reduce(%18), dim = -1, op =  ADD, keep_dim = true : (tensor<1x32x4096x4096xf32>) -> tensor<1x32x4096x1xf32>
    asuka.return %9, %13, %19 : tensor<1x32x4096x1xf32>, tensor<1x4096x32x128xf16>, tensor<1x32x4096x1xf32>
  }
  asuka.kernel @KeyFormer_p1(%arg0: tensor<1x4096x32x128xf16>, %arg1: tensor<1x4096x32x128xf16>, %arg2: tensor<1x4096x32x128xf16>) -> tensor<1x4096x32x128xf16> {
    %cst = arith.constant dense<1.131250e+01> : tensor<1xf16>
    %0 = asuka.trilu diagonal = 1, is_upper = true, shape = [4096, 4096], val = 0xFC00 : f16
    %1 = asuka.permute %arg0, dims = [0, 2, 1, 3] : (tensor<1x4096x32x128xf16>) -> tensor<1x32x4096x128xf16>
    %2 = asuka.permute %arg1, dims = [0, 2, 1, 3] : (tensor<1x4096x32x128xf16>) -> tensor<1x32x4096x128xf16>
    %3 = asuka.permute %arg2, dims = [0, 2, 3, 1] : (tensor<1x4096x32x128xf16>) -> tensor<1x32x128x4096xf16>
    %4 = asuka.dot %1, %3 : (tensor<1x32x4096x128xf16>, tensor<1x32x128x4096xf16>) -> tensor<1x32x4096x4096xf16>
    %5 = asuka.div %4, %cst : (tensor<1x32x4096x4096xf16>, tensor<1xf16>) -> tensor<1x32x4096x4096xf16>
    %6 = asuka.add %5, %0 : (tensor<1x32x4096x4096xf16>, tensor<4096x4096xf16>) -> tensor<1x32x4096x4096xf16>
    %7 = asuka.convert %6, type = f32 : (tensor<1x32x4096x4096xf16>) -> tensor<1x32x4096x4096xf32>
    %8 = asuka.exp %7 : (tensor<1x32x4096x4096xf32>) -> tensor<1x32x4096x4096xf32>
    %9 = asuka.reduce(%8), dim = -1, op =  ADD, keep_dim = true : (tensor<1x32x4096x4096xf32>) -> tensor<1x32x4096x1xf32>
    %10 = asuka.div %8, %9 : (tensor<1x32x4096x4096xf32>, tensor<1x32x4096x1xf32>) -> tensor<1x32x4096x4096xf32>
    %11 = asuka.convert %10, type = f16 : (tensor<1x32x4096x4096xf32>) -> tensor<1x32x4096x4096xf16>
    %12 = asuka.dot %11, %2 : (tensor<1x32x4096x4096xf16>, tensor<1x32x4096x128xf16>) -> tensor<1x32x4096x128xf16>
    %13 = asuka.permute %12, dims = [0, 2, 1, 3] : (tensor<1x32x4096x128xf16>) -> tensor<1x4096x32x128xf16>
    asuka.return %13 : tensor<1x4096x32x128xf16>
  }
  asuka.kernel @KeyFormer_p2(%arg0: tensor<1x4096x32x128xf16>, %arg1: tensor<1x4096x32x128xf16>, %arg2: tensor<1x4096x32x128xf16>, %arg3: tensor<1x32x4096x1xf32>) -> tensor<1x4096x32x128xf16> {
    %cst = arith.constant dense<1.131250e+01> : tensor<1xf16>
    %0 = asuka.trilu diagonal = 1, is_upper = true, shape = [4096, 4096], val = 0xFC00 : f16
    %1 = asuka.permute %arg0, dims = [0, 2, 1, 3] : (tensor<1x4096x32x128xf16>) -> tensor<1x32x4096x128xf16>
    %2 = asuka.permute %arg1, dims = [0, 2, 1, 3] : (tensor<1x4096x32x128xf16>) -> tensor<1x32x4096x128xf16>
    %3 = asuka.permute %arg2, dims = [0, 2, 3, 1] : (tensor<1x4096x32x128xf16>) -> tensor<1x32x128x4096xf16>
    %4 = asuka.dot %1, %3 : (tensor<1x32x4096x128xf16>, tensor<1x32x128x4096xf16>) -> tensor<1x32x4096x4096xf16>
    %5 = asuka.div %4, %cst : (tensor<1x32x4096x4096xf16>, tensor<1xf16>) -> tensor<1x32x4096x4096xf16>
    %6 = asuka.add %5, %0 : (tensor<1x32x4096x4096xf16>, tensor<4096x4096xf16>) -> tensor<1x32x4096x4096xf16>
    %7 = asuka.convert %6, type = f32 : (tensor<1x32x4096x4096xf16>) -> tensor<1x32x4096x4096xf32>
    %8 = asuka.exp %7 : (tensor<1x32x4096x4096xf32>) -> tensor<1x32x4096x4096xf32>
    %9 = asuka.div %8, %arg3 : (tensor<1x32x4096x4096xf32>, tensor<1x32x4096x1xf32>) -> tensor<1x32x4096x4096xf32>
    %10 = asuka.convert %9, type = f16 : (tensor<1x32x4096x4096xf32>) -> tensor<1x32x4096x4096xf16>
    %11 = asuka.dot %10, %2 : (tensor<1x32x4096x4096xf16>, tensor<1x32x4096x128xf16>) -> tensor<1x32x4096x128xf16>
    %12 = asuka.permute %11, dims = [0, 2, 1, 3] : (tensor<1x32x4096x128xf16>) -> tensor<1x4096x32x128xf16>
    asuka.return %12 : tensor<1x4096x32x128xf16>
  }
  asuka.kernel @KeyFormer_p3(%arg0: tensor<1x4096x32x128xf16>, %arg1: tensor<1x4096x32x128xf16>, %arg2: tensor<1x4096x32x128xf16>, %arg3: tensor<1x32x4096x4096xf32>) -> (tensor<1x4096x32x128xf16>, tensor<1x32x4096x1xf32>) {
    %cst = arith.constant dense<1.500000e+00> : tensor<1xf32>
    %cst_0 = arith.constant dense<1.131250e+01> : tensor<1xf16>
    %0 = asuka.trilu diagonal = 1, is_upper = true, shape = [4096, 4096], val = 0xFC00 : f16
    %1 = asuka.permute %arg0, dims = [0, 2, 1, 3] : (tensor<1x4096x32x128xf16>) -> tensor<1x32x4096x128xf16>
    %2 = asuka.permute %arg1, dims = [0, 2, 1, 3] : (tensor<1x4096x32x128xf16>) -> tensor<1x32x4096x128xf16>
    %3 = asuka.permute %arg2, dims = [0, 2, 3, 1] : (tensor<1x4096x32x128xf16>) -> tensor<1x32x128x4096xf16>
    %4 = asuka.dot %1, %3 : (tensor<1x32x4096x128xf16>, tensor<1x32x128x4096xf16>) -> tensor<1x32x4096x4096xf16>
    %5 = asuka.div %4, %cst_0 : (tensor<1x32x4096x4096xf16>, tensor<1xf16>) -> tensor<1x32x4096x4096xf16>
    %6 = asuka.add %5, %0 : (tensor<1x32x4096x4096xf16>, tensor<4096x4096xf16>) -> tensor<1x32x4096x4096xf16>
    %7 = asuka.convert %6, type = f32 : (tensor<1x32x4096x4096xf16>) -> tensor<1x32x4096x4096xf32>
    %8 = asuka.exp %7 : (tensor<1x32x4096x4096xf32>) -> tensor<1x32x4096x4096xf32>
    %9 = asuka.reduce(%8), dim = -1, op =  ADD, keep_dim = true : (tensor<1x32x4096x4096xf32>) -> tensor<1x32x4096x1xf32>
    %10 = asuka.div %8, %9 : (tensor<1x32x4096x4096xf32>, tensor<1x32x4096x1xf32>) -> tensor<1x32x4096x4096xf32>
    %11 = asuka.convert %10, type = f16 : (tensor<1x32x4096x4096xf32>) -> tensor<1x32x4096x4096xf16>
    %12 = asuka.dot %11, %2 : (tensor<1x32x4096x4096xf16>, tensor<1x32x4096x128xf16>) -> tensor<1x32x4096x128xf16>
    %13 = asuka.permute %12, dims = [0, 2, 1, 3] : (tensor<1x32x4096x128xf16>) -> tensor<1x4096x32x128xf16>
    %14 = asuka.log %arg3 : (tensor<1x32x4096x4096xf32>) -> tensor<1x32x4096x4096xf32>
    %15 = asuka.neg %14 : (tensor<1x32x4096x4096xf32>) -> tensor<1x32x4096x4096xf32>
    %16 = asuka.add %7, %15 : (tensor<1x32x4096x4096xf32>, tensor<1x32x4096x4096xf32>) -> tensor<1x32x4096x4096xf32>
    %17 = asuka.div %16, %cst : (tensor<1x32x4096x4096xf32>, tensor<1xf32>) -> tensor<1x32x4096x4096xf32>
    %18 = asuka.exp %17 : (tensor<1x32x4096x4096xf32>) -> tensor<1x32x4096x4096xf32>
    %19 = asuka.reduce(%18), dim = -1, op =  ADD, keep_dim = true : (tensor<1x32x4096x4096xf32>) -> tensor<1x32x4096x1xf32>
    asuka.return %13, %19 : tensor<1x4096x32x128xf16>, tensor<1x32x4096x1xf32>
  }
  asuka.kernel @KeyFormer_p4(%arg0: tensor<1x4096x32x128xf16>, %arg1: tensor<1x4096x32x128xf16>) -> tensor<1x32x4096x1xf32> {
    %cst = arith.constant dense<1.131250e+01> : tensor<1xf16>
    %0 = asuka.trilu diagonal = 1, is_upper = true, shape = [4096, 4096], val = 0xFC00 : f16
    %1 = asuka.permute %arg0, dims = [0, 2, 1, 3] : (tensor<1x4096x32x128xf16>) -> tensor<1x32x4096x128xf16>
    %2 = asuka.permute %arg1, dims = [0, 2, 3, 1] : (tensor<1x4096x32x128xf16>) -> tensor<1x32x128x4096xf16>
    %3 = asuka.dot %1, %2 : (tensor<1x32x4096x128xf16>, tensor<1x32x128x4096xf16>) -> tensor<1x32x4096x4096xf16>
    %4 = asuka.div %3, %cst : (tensor<1x32x4096x4096xf16>, tensor<1xf16>) -> tensor<1x32x4096x4096xf16>
    %5 = asuka.add %4, %0 : (tensor<1x32x4096x4096xf16>, tensor<4096x4096xf16>) -> tensor<1x32x4096x4096xf16>
    %6 = asuka.convert %5, type = f32 : (tensor<1x32x4096x4096xf16>) -> tensor<1x32x4096x4096xf32>
    %7 = asuka.exp %6 : (tensor<1x32x4096x4096xf32>) -> tensor<1x32x4096x4096xf32>
    %8 = asuka.reduce(%7), dim = -1, op =  ADD, keep_dim = true : (tensor<1x32x4096x4096xf32>) -> tensor<1x32x4096x1xf32>
    asuka.return %8 : tensor<1x32x4096x1xf32>
  }
  asuka.kernel @KeyFormer_p5(%arg0: tensor<1x4096x32x128xf16>, %arg1: tensor<1x4096x32x128xf16>, %arg2: tensor<1x32x4096x4096xf32>) -> (tensor<1x32x4096x1xf32>, tensor<1x32x4096x1xf32>) {
    %cst = arith.constant dense<1.500000e+00> : tensor<1xf32>
    %cst_0 = arith.constant dense<1.131250e+01> : tensor<1xf16>
    %0 = asuka.trilu diagonal = 1, is_upper = true, shape = [4096, 4096], val = 0xFC00 : f16
    %1 = asuka.permute %arg0, dims = [0, 2, 1, 3] : (tensor<1x4096x32x128xf16>) -> tensor<1x32x4096x128xf16>
    %2 = asuka.permute %arg1, dims = [0, 2, 3, 1] : (tensor<1x4096x32x128xf16>) -> tensor<1x32x128x4096xf16>
    %3 = asuka.dot %1, %2 : (tensor<1x32x4096x128xf16>, tensor<1x32x128x4096xf16>) -> tensor<1x32x4096x4096xf16>
    %4 = asuka.div %3, %cst_0 : (tensor<1x32x4096x4096xf16>, tensor<1xf16>) -> tensor<1x32x4096x4096xf16>
    %5 = asuka.add %4, %0 : (tensor<1x32x4096x4096xf16>, tensor<4096x4096xf16>) -> tensor<1x32x4096x4096xf16>
    %6 = asuka.convert %5, type = f32 : (tensor<1x32x4096x4096xf16>) -> tensor<1x32x4096x4096xf32>
    %7 = asuka.exp %6 : (tensor<1x32x4096x4096xf32>) -> tensor<1x32x4096x4096xf32>
    %8 = asuka.reduce(%7), dim = -1, op =  ADD, keep_dim = true : (tensor<1x32x4096x4096xf32>) -> tensor<1x32x4096x1xf32>
    %9 = asuka.log %arg2 : (tensor<1x32x4096x4096xf32>) -> tensor<1x32x4096x4096xf32>
    %10 = asuka.neg %9 : (tensor<1x32x4096x4096xf32>) -> tensor<1x32x4096x4096xf32>
    %11 = asuka.add %6, %10 : (tensor<1x32x4096x4096xf32>, tensor<1x32x4096x4096xf32>) -> tensor<1x32x4096x4096xf32>
    %12 = asuka.div %11, %cst : (tensor<1x32x4096x4096xf32>, tensor<1xf32>) -> tensor<1x32x4096x4096xf32>
    %13 = asuka.exp %12 : (tensor<1x32x4096x4096xf32>) -> tensor<1x32x4096x4096xf32>
    %14 = asuka.reduce(%13), dim = -1, op =  ADD, keep_dim = true : (tensor<1x32x4096x4096xf32>) -> tensor<1x32x4096x1xf32>
    asuka.return %8, %14 : tensor<1x32x4096x1xf32>, tensor<1x32x4096x1xf32>
  }
  asuka.kernel @KeyFormer_p6(%arg0: tensor<1x4096x32x128xf16>, %arg1: tensor<1x4096x32x128xf16>, %arg2: tensor<1x4096x32x128xf16>, %arg3: tensor<1x32x4096x1xf32>, %arg4: tensor<1x32x4096x4096xf32>) -> (tensor<1x4096x32x128xf16>, tensor<1x32x4096x1xf32>) {
    %cst = arith.constant dense<1.500000e+00> : tensor<1xf32>
    %cst_0 = arith.constant dense<1.131250e+01> : tensor<1xf16>
    %0 = asuka.trilu diagonal = 1, is_upper = true, shape = [4096, 4096], val = 0xFC00 : f16
    %1 = asuka.permute %arg0, dims = [0, 2, 1, 3] : (tensor<1x4096x32x128xf16>) -> tensor<1x32x4096x128xf16>
    %2 = asuka.permute %arg1, dims = [0, 2, 1, 3] : (tensor<1x4096x32x128xf16>) -> tensor<1x32x4096x128xf16>
    %3 = asuka.permute %arg2, dims = [0, 2, 3, 1] : (tensor<1x4096x32x128xf16>) -> tensor<1x32x128x4096xf16>
    %4 = asuka.dot %1, %3 : (tensor<1x32x4096x128xf16>, tensor<1x32x128x4096xf16>) -> tensor<1x32x4096x4096xf16>
    %5 = asuka.div %4, %cst_0 : (tensor<1x32x4096x4096xf16>, tensor<1xf16>) -> tensor<1x32x4096x4096xf16>
    %6 = asuka.add %5, %0 : (tensor<1x32x4096x4096xf16>, tensor<4096x4096xf16>) -> tensor<1x32x4096x4096xf16>
    %7 = asuka.convert %6, type = f32 : (tensor<1x32x4096x4096xf16>) -> tensor<1x32x4096x4096xf32>
    %8 = asuka.exp %7 : (tensor<1x32x4096x4096xf32>) -> tensor<1x32x4096x4096xf32>
    %9 = asuka.div %8, %arg3 : (tensor<1x32x4096x4096xf32>, tensor<1x32x4096x1xf32>) -> tensor<1x32x4096x4096xf32>
    %10 = asuka.convert %9, type = f16 : (tensor<1x32x4096x4096xf32>) -> tensor<1x32x4096x4096xf16>
    %11 = asuka.dot %10, %2 : (tensor<1x32x4096x4096xf16>, tensor<1x32x4096x128xf16>) -> tensor<1x32x4096x128xf16>
    %12 = asuka.permute %11, dims = [0, 2, 1, 3] : (tensor<1x32x4096x128xf16>) -> tensor<1x4096x32x128xf16>
    %13 = asuka.log %arg4 : (tensor<1x32x4096x4096xf32>) -> tensor<1x32x4096x4096xf32>
    %14 = asuka.neg %13 : (tensor<1x32x4096x4096xf32>) -> tensor<1x32x4096x4096xf32>
    %15 = asuka.add %7, %14 : (tensor<1x32x4096x4096xf32>, tensor<1x32x4096x4096xf32>) -> tensor<1x32x4096x4096xf32>
    %16 = asuka.div %15, %cst : (tensor<1x32x4096x4096xf32>, tensor<1xf32>) -> tensor<1x32x4096x4096xf32>
    %17 = asuka.exp %16 : (tensor<1x32x4096x4096xf32>) -> tensor<1x32x4096x4096xf32>
    %18 = asuka.reduce(%17), dim = -1, op =  ADD, keep_dim = true : (tensor<1x32x4096x4096xf32>) -> tensor<1x32x4096x1xf32>
    asuka.return %12, %18 : tensor<1x4096x32x128xf16>, tensor<1x32x4096x1xf32>
  }
  asuka.kernel @KeyFormer_p7(%arg0: tensor<1x4096x32x128xf16>, %arg1: tensor<1x4096x32x128xf16>, %arg2: tensor<1x32x4096x4096xf32>, %arg3: tensor<1x32x4096x1xf32>) -> tensor<1x32x4096xf32> {
    %cst = arith.constant dense<1.500000e+00> : tensor<1xf32>
    %cst_0 = arith.constant dense<1.131250e+01> : tensor<1xf16>
    %0 = asuka.trilu diagonal = 1, is_upper = true, shape = [4096, 4096], val = 0xFC00 : f16
    %1 = asuka.permute %arg0, dims = [0, 2, 1, 3] : (tensor<1x4096x32x128xf16>) -> tensor<1x32x4096x128xf16>
    %2 = asuka.permute %arg1, dims = [0, 2, 3, 1] : (tensor<1x4096x32x128xf16>) -> tensor<1x32x128x4096xf16>
    %3 = asuka.dot %1, %2 : (tensor<1x32x4096x128xf16>, tensor<1x32x128x4096xf16>) -> tensor<1x32x4096x4096xf16>
    %4 = asuka.div %3, %cst_0 : (tensor<1x32x4096x4096xf16>, tensor<1xf16>) -> tensor<1x32x4096x4096xf16>
    %5 = asuka.add %4, %0 : (tensor<1x32x4096x4096xf16>, tensor<4096x4096xf16>) -> tensor<1x32x4096x4096xf16>
    %6 = asuka.convert %5, type = f32 : (tensor<1x32x4096x4096xf16>) -> tensor<1x32x4096x4096xf32>
    %7 = asuka.log %arg2 : (tensor<1x32x4096x4096xf32>) -> tensor<1x32x4096x4096xf32>
    %8 = asuka.neg %7 : (tensor<1x32x4096x4096xf32>) -> tensor<1x32x4096x4096xf32>
    %9 = asuka.add %6, %8 : (tensor<1x32x4096x4096xf32>, tensor<1x32x4096x4096xf32>) -> tensor<1x32x4096x4096xf32>
    %10 = asuka.div %9, %cst : (tensor<1x32x4096x4096xf32>, tensor<1xf32>) -> tensor<1x32x4096x4096xf32>
    %11 = asuka.exp %10 : (tensor<1x32x4096x4096xf32>) -> tensor<1x32x4096x4096xf32>
    %12 = asuka.div %11, %arg3 : (tensor<1x32x4096x4096xf32>, tensor<1x32x4096x1xf32>) -> tensor<1x32x4096x4096xf32>
    %13 = asuka.reduce(%12), dim = 2, op =  ADD, keep_dim = false : (tensor<1x32x4096x4096xf32>) -> tensor<1x32x4096xf32>
    asuka.return %13 : tensor<1x32x4096xf32>
  }
  asuka.kernel @KeyFormer_p8(%arg0: tensor<1x4096x32x128xf16>, %arg1: tensor<1x4096x32x128xf16>, %arg2: tensor<1x4096x32x128xf16>) -> (tensor<1x32x4096x1xf32>, tensor<1x4096x32x128xf16>) {
    %cst = arith.constant dense<1.131250e+01> : tensor<1xf16>
    %0 = asuka.trilu diagonal = 1, is_upper = true, shape = [4096, 4096], val = 0xFC00 : f16
    %1 = asuka.permute %arg0, dims = [0, 2, 1, 3] : (tensor<1x4096x32x128xf16>) -> tensor<1x32x4096x128xf16>
    %2 = asuka.permute %arg1, dims = [0, 2, 1, 3] : (tensor<1x4096x32x128xf16>) -> tensor<1x32x4096x128xf16>
    %3 = asuka.permute %arg2, dims = [0, 2, 3, 1] : (tensor<1x4096x32x128xf16>) -> tensor<1x32x128x4096xf16>
    %4 = asuka.dot %1, %3 : (tensor<1x32x4096x128xf16>, tensor<1x32x128x4096xf16>) -> tensor<1x32x4096x4096xf16>
    %5 = asuka.div %4, %cst : (tensor<1x32x4096x4096xf16>, tensor<1xf16>) -> tensor<1x32x4096x4096xf16>
    %6 = asuka.add %5, %0 : (tensor<1x32x4096x4096xf16>, tensor<4096x4096xf16>) -> tensor<1x32x4096x4096xf16>
    %7 = asuka.convert %6, type = f32 : (tensor<1x32x4096x4096xf16>) -> tensor<1x32x4096x4096xf32>
    %8 = asuka.exp %7 : (tensor<1x32x4096x4096xf32>) -> tensor<1x32x4096x4096xf32>
    %9 = asuka.reduce(%8), dim = -1, op =  ADD, keep_dim = true : (tensor<1x32x4096x4096xf32>) -> tensor<1x32x4096x1xf32>
    %10 = asuka.div %8, %9 : (tensor<1x32x4096x4096xf32>, tensor<1x32x4096x1xf32>) -> tensor<1x32x4096x4096xf32>
    %11 = asuka.convert %10, type = f16 : (tensor<1x32x4096x4096xf32>) -> tensor<1x32x4096x4096xf16>
    %12 = asuka.dot %11, %2 : (tensor<1x32x4096x4096xf16>, tensor<1x32x4096x128xf16>) -> tensor<1x32x4096x128xf16>
    %13 = asuka.permute %12, dims = [0, 2, 1, 3] : (tensor<1x32x4096x128xf16>) -> tensor<1x4096x32x128xf16>
    asuka.return %9, %13 : tensor<1x32x4096x1xf32>, tensor<1x4096x32x128xf16>
  }
  asuka.kernel @KeyFormer_p9(%arg0: tensor<1x4096x32x128xf16>, %arg1: tensor<1x4096x32x128xf16>, %arg2: tensor<1x32x4096x4096xf32>) -> tensor<1x32x4096x1xf32> {
    %cst = arith.constant dense<1.500000e+00> : tensor<1xf32>
    %cst_0 = arith.constant dense<1.131250e+01> : tensor<1xf16>
    %0 = asuka.trilu diagonal = 1, is_upper = true, shape = [4096, 4096], val = 0xFC00 : f16
    %1 = asuka.permute %arg0, dims = [0, 2, 1, 3] : (tensor<1x4096x32x128xf16>) -> tensor<1x32x4096x128xf16>
    %2 = asuka.permute %arg1, dims = [0, 2, 3, 1] : (tensor<1x4096x32x128xf16>) -> tensor<1x32x128x4096xf16>
    %3 = asuka.dot %1, %2 : (tensor<1x32x4096x128xf16>, tensor<1x32x128x4096xf16>) -> tensor<1x32x4096x4096xf16>
    %4 = asuka.div %3, %cst_0 : (tensor<1x32x4096x4096xf16>, tensor<1xf16>) -> tensor<1x32x4096x4096xf16>
    %5 = asuka.add %4, %0 : (tensor<1x32x4096x4096xf16>, tensor<4096x4096xf16>) -> tensor<1x32x4096x4096xf16>
    %6 = asuka.convert %5, type = f32 : (tensor<1x32x4096x4096xf16>) -> tensor<1x32x4096x4096xf32>
    %7 = asuka.log %arg2 : (tensor<1x32x4096x4096xf32>) -> tensor<1x32x4096x4096xf32>
    %8 = asuka.neg %7 : (tensor<1x32x4096x4096xf32>) -> tensor<1x32x4096x4096xf32>
    %9 = asuka.add %6, %8 : (tensor<1x32x4096x4096xf32>, tensor<1x32x4096x4096xf32>) -> tensor<1x32x4096x4096xf32>
    %10 = asuka.div %9, %cst : (tensor<1x32x4096x4096xf32>, tensor<1xf32>) -> tensor<1x32x4096x4096xf32>
    %11 = asuka.exp %10 : (tensor<1x32x4096x4096xf32>) -> tensor<1x32x4096x4096xf32>
    %12 = asuka.reduce(%11), dim = -1, op =  ADD, keep_dim = true : (tensor<1x32x4096x4096xf32>) -> tensor<1x32x4096x1xf32>
    asuka.return %12 : tensor<1x32x4096x1xf32>
  }
}
optimize KeyFormer_p0
optimize KeyFormer_p1
optimize KeyFormer_p2
optimize KeyFormer_p3
optimize KeyFormer_p4
optimize KeyFormer_p5
%0:2 = asuka.parallel_for <<UNKNOWN SSA VALUE>>, <<UNKNOWN SSA VALUE>>, <<UNKNOWN SSA VALUE>> {
^bb0(%arg0: index, %arg1: index, %arg2: index, %arg3: tensor<128x128xf64>, %arg4: tensor<4096x128xf64>, %arg5: tensor<128x4096xf64>):
  %cst = arith.constant 0.000000e+00 : f64
  %cst_0 = arith.constant 0xFFF0000000000000 : f64
  %c1 = arith.constant 1 : index
  %cst_1 = arith.constant dense<0.96179668108622229> : tensor<1xf64>
  %cst_2 = arith.constant dense<1.4426950216293335> : tensor<1xf64>
  %cst_3 = arith.constant dense<1.131250e+01> : tensor<1xf64>
  %c0 = arith.constant 0 : index
  %0 = asuka.permute %arg4, dims = [1, 0] : (tensor<4096x128xf64>) -> tensor<128x4096xf64>
  %1 = asuka.div %arg3, %cst_3 : (tensor<128x128xf64>, tensor<1xf64>) -> tensor<128x128xf64>
  %2 = asuka.block_for lb = 0, ub = 4096, step = 128, args = [%0], dims = [1], init = [] {
  ^bb0(%arg6: index, %arg7: tensor<128x128xf64>):
    %12 = asuka.mask starts = [%arg1, %arg6], sizes = [128, 128], type = f64 {
    ^bb0(%arg8: index, %arg9: index):
      %15 = arith.addi %arg8, %c1 : index
      %16 = arith.cmpi ule, %15, %arg9 : index
      %17 = scf.if %16 -> (f64) {
        scf.yield %cst_0 : f64
      } else {
        scf.yield %cst : f64
      }
      asuka.mask_yield %17 : f64
    } : (index, index) -> tensor<128x128xf64>
    %13 = asuka.dot %1, %arg7 : (tensor<128x128xf64>, tensor<128x128xf64>) -> tensor<128x128xf64>
    %14 = asuka.add %13, %12 : (tensor<128x128xf64>, tensor<128x128xf64>) -> tensor<128x128xf64>
    asuka.block_yield block_outs = [%14], iter_outs = [] : tensor<128x128xf64>
  } : (tensor<128x4096xf64>) -> tensor<128x4096xf64>
  %3 = asuka.mul %2, %cst_2 : (tensor<128x4096xf64>, tensor<1xf64>) -> tensor<128x4096xf64>
  %4 = asuka.exp2 %3 : (tensor<128x4096xf64>) -> tensor<128x4096xf64>
  %5 = asuka.reduce(%4), dim = 1, op =  ADD, keep_dim = true : (tensor<128x4096xf64>) -> tensor<128x1xf64>
  %6 = asuka.log %arg5 : (tensor<128x4096xf64>) -> tensor<128x4096xf64>
  %7 = asuka.neg %6 : (tensor<128x4096xf64>) -> tensor<128x4096xf64>
  %8 = asuka.add %2, %7 : (tensor<128x4096xf64>, tensor<128x4096xf64>) -> tensor<128x4096xf64>
  %9 = asuka.mul %8, %cst_1 : (tensor<128x4096xf64>, tensor<1xf64>) -> tensor<128x4096xf64>
  %10 = asuka.exp2 %9 : (tensor<128x4096xf64>) -> tensor<128x4096xf64>
  %11 = asuka.reduce(%10), dim = 1, op =  ADD, keep_dim = true : (tensor<128x4096xf64>) -> tensor<128x1xf64>
  asuka.parallel_yield %5, %11 : tensor<128x1xf64>, tensor<128x1xf64>
} : (tensor<1x4096x32x128xf64>, tensor<1x4096x32x128xf64>, tensor<1x32x4096x4096xf64>) -> (tensor<1x32x4096x1xf64>, tensor<1x32x4096x1xf64>)
unreachable
%0:2 = asuka.parallel_for <<UNKNOWN SSA VALUE>>, <<UNKNOWN SSA VALUE>>, <<UNKNOWN SSA VALUE>> {
^bb0(%arg0: index, %arg1: index, %arg2: index, %arg3: tensor<128x128xf64>, %arg4: tensor<4096x128xf64>, %arg5: tensor<128x4096xf64>):
  %cst = arith.constant 0.000000e+00 : f64
  %cst_0 = arith.constant 0xFFF0000000000000 : f64
  %c1 = arith.constant 1 : index
  %cst_1 = arith.constant dense<0.96179668108622229> : tensor<1xf64>
  %cst_2 = arith.constant dense<1.4426950216293335> : tensor<1xf64>
  %cst_3 = arith.constant dense<1.131250e+01> : tensor<1xf64>
  %0 = asuka.permute %arg4, dims = [1, 0] : (tensor<4096x128xf64>) -> tensor<128x4096xf64>
  %1 = asuka.div %arg3, %cst_3 : (tensor<128x128xf64>, tensor<1xf64>) -> tensor<128x128xf64>
  %2 = asuka.block_for lb = 0, ub = 4096, step = 128, args = [%0], dims = [1], init = [] {
  ^bb0(%arg6: index, %arg7: tensor<128x128xf64>):
    %12 = asuka.mask starts = [%arg1, %arg6], sizes = [128, 128], type = f64 {
    ^bb0(%arg8: index, %arg9: index):
      %15 = arith.addi %arg8, %c1 : index
      %16 = arith.cmpi ule, %15, %arg9 : index
      %17 = scf.if %16 -> (f64) {
        scf.yield %cst_0 : f64
      } else {
        scf.yield %cst : f64
      }
      asuka.mask_yield %17 : f64
    } : (index, index) -> tensor<128x128xf64>
    %13 = asuka.dot %1, %arg7 : (tensor<128x128xf64>, tensor<128x128xf64>) -> tensor<128x128xf64>
    %14 = asuka.add %13, %12 : (tensor<128x128xf64>, tensor<128x128xf64>) -> tensor<128x128xf64>
    asuka.block_yield block_outs = [%14], iter_outs = [] : tensor<128x128xf64>
  } : (tensor<128x4096xf64>) -> tensor<128x4096xf64>
  %3 = asuka.mul %2, %cst_2 : (tensor<128x4096xf64>, tensor<1xf64>) -> tensor<128x4096xf64>
  %4 = asuka.exp2 %3 : (tensor<128x4096xf64>) -> tensor<128x4096xf64>
  %5 = asuka.reduce(%4), dim = 1, op =  ADD, keep_dim = true : (tensor<128x4096xf64>) -> tensor<128x1xf64>
  %6 = asuka.log %arg5 : (tensor<128x4096xf64>) -> tensor<128x4096xf64>
  %7 = asuka.neg %6 : (tensor<128x4096xf64>) -> tensor<128x4096xf64>
  %8 = asuka.add %2, %7 : (tensor<128x4096xf64>, tensor<128x4096xf64>) -> tensor<128x4096xf64>
  %9 = asuka.mul %8, %cst_1 : (tensor<128x4096xf64>, tensor<1xf64>) -> tensor<128x4096xf64>
  %10 = asuka.exp2 %9 : (tensor<128x4096xf64>) -> tensor<128x4096xf64>
  %11 = asuka.reduce(%10), dim = 1, op =  ADD, keep_dim = true : (tensor<128x4096xf64>) -> tensor<128x1xf64>
  asuka.parallel_yield %5, %11 : tensor<128x1xf64>, tensor<128x1xf64>
} : (tensor<1x4096x32x128xf64>, tensor<1x4096x32x128xf64>, tensor<1x32x4096x4096xf64>) -> (tensor<1x32x4096x1xf64>, tensor<1x32x4096x1xf64>)
unreachable
error: failed to legalize operation 'asuka.dynamic_block_for' that was explicitly marked illegal
optimize KeyFormer_p5 failed
optimize KeyFormer_p6
optimize KeyFormer_p7
optimize KeyFormer_p8
optimize KeyFormer_p9
tuning time: 190.92810702323914 sec
Skip op: func.func
path: /tmp/tmplboooa42.py
profiling...
out_str='[KeyFormer_p0] avg_ms: 3.3741683959960938\n[KeyFormer_p1] avg_ms: 0.5585104823112488\n[KeyFormer_p2] avg_ms: 0.5528942942619324\n[KeyFormer_p3] avg_ms: 3.3534696102142334\n[KeyFormer_p4] avg_ms: 0.5773102045059204\n[KeyFormer_p6] avg_ms: 3.1092147827148438\n[KeyFormer_p7] avg_ms: 1.284568190574646\n[KeyFormer_p8] avg_ms: 0.5608904957771301\n[KeyFormer_p9] avg_ms: 1.154452919960022\n'
[KeyFormer_p0] avg_ms: 3.3741683959960938
[KeyFormer_p1] avg_ms: 0.5585104823112488
[KeyFormer_p2] avg_ms: 0.5528942942619324
[KeyFormer_p3] avg_ms: 3.3534696102142334
[KeyFormer_p4] avg_ms: 0.5773102045059204
[KeyFormer_p6] avg_ms: 3.1092147827148438
[KeyFormer_p7] avg_ms: 1.284568190574646
[KeyFormer_p8] avg_ms: 0.5608904957771301
[KeyFormer_p9] avg_ms: 1.154452919960022
best_kernel:

KeyFormer_p1
KeyFormer_p9
KeyFormer_p7
best_time=2.9975315928459167
import math
import torch
import torch.nn as nn
import torch.nn.functional as F
import triton
import triton.language as tl
from typing import Callable, Any, Optional, Tuple

def bench_KeyFormer_p1():
  dev = torch.cuda.current_device()
  rand_arg_0 = torch.randn(1, 4096, 32, 128, dtype=torch.float16, device=dev)
  rand_arg_1 = torch.randn(1, 4096, 32, 128, dtype=torch.float16, device=dev)
  rand_arg_2 = torch.randn(1, 4096, 32, 128, dtype=torch.float16, device=dev)
  avg_ms = triton.testing.do_bench(lambda: KeyFormer_p1(rand_arg_0, rand_arg_1, rand_arg_2))
  print('[KeyFormer_p1] avg_ms:', avg_ms)

def KeyFormer_p1(arg0: torch.Tensor, arg1: torch.Tensor, arg2: torch.Tensor) -> torch.Tensor:
  dev = arg0.device
  autotune_key = torch.cuda.get_device_capability(dev)[0]
  tensor_0 = arg0
  tensor_1 = arg1
  tensor_2 = arg2
  empty_ptr_3 = torch.empty(1, 4096, 32, 128, dtype=torch.float16, device=dev)
  grid = (1, 32, 32)
  KeyFormer_p1_kernel[grid](tensor_0, tensor_1, tensor_2, empty_ptr_3, autotune_key)
  tensor_4 = empty_ptr_3
  return tensor_4

@triton.autotune(configs=[
  triton.Config({}, num_warps=4),
  triton.Config({}, num_warps=8),
], key=['autotune_key'])
@triton.jit
def KeyFormer_p1_kernel(
  arg_0,
  arg_1,
  arg_2,
  arg_3,
  autotune_key,
):
  pid_4 = tl.program_id(0)
  pid_5 = tl.program_id(1)
  pid_6 = tl.program_id(2)
  const_7 = 1.275311e-01
  const_8 = float('-inf')
  const_9 = 0.000000e+00
  const_10 = 0
  const_11 = 1
  const_12 = 4096
  const_13 = 128
  mul_14 = pid_5 * const_13
  mul_15 = mul_14 * const_12
  mul_16 = pid_6 * const_13
  add_17 = mul_15 + mul_16
  block_ptr_18 = tl.make_block_ptr(
    base=arg_0 + add_17,
    shape=(128, 128,),
    strides=(4096, 1,),
    offsets=(0, 0,),
    block_shape=(128, 128,),
    order=(1, 0,),
  )
  block_load_19 = tl.load(block_ptr_18)
  block_ptr_20 = tl.make_block_ptr(
    base=arg_3 + add_17,
    shape=(128, 128,),
    strides=(4096, 1,),
    offsets=(0, 0,),
    block_shape=(128, 128,),
    order=(1, 0,),
  )
  converted_21 = const_7
  mul_22 = block_load_19 * converted_21
  mul_22 = mul_22.to(tl.float16)
  zero_23 = tl.zeros([128, 128], dtype=tl.float32)
  zero_24 = tl.zeros([128, 1], dtype=tl.float32)
  add_25 = mul_14 + const_13
  block_ptr_26 = tl.make_block_ptr(
    base=arg_2 + mul_16,
    shape=(128, 4096,),
    strides=(1, 4096,),
    offsets=(0, 0,),
    block_shape=(128, 128,),
    order=(0, 1,),
  )
  block_ptr_27 = tl.make_block_ptr(
    base=arg_1 + mul_16,
    shape=(4096, 128,),
    strides=(4096, 1,),
    offsets=(0, 0,),
    block_shape=(128, 128,),
    order=(1, 0,),
  )
  for i_28 in range(const_10, add_25, const_13):
    block_load_29 = tl.load(block_ptr_26)
    block_load_30 = tl.load(block_ptr_27)
    dot_31 = tl.dot(mul_22, block_load_29)
    where_32 = tl.zeros([128, 128], dtype=tl.float32)
    where_32 = tl.where(mul_14 + tl.arange(0, 128)[:, None] >= i_28 + tl.arange(0, 128)[None, :], where_32, float('-inf'))
    add_33 = dot_31 + where_32
    exp2_34 = tl.math.exp2(add_33)
    reduce_sum_35 = tl.sum(exp2_34, axis=1, keep_dims=True).to(tl.float32)
    reduce_sum_35 += zero_24
    converted_36 = exp2_34.to(tl.float16)
    dot_37 = tl.dot(converted_36, block_load_30)
    add_38 = zero_23 + dot_37
    block_advance_39 = tl.advance(block_ptr_26, (0, 128,))
    block_advance_40 = tl.advance(block_ptr_27, (128, 0,))
    block_ptr_26 = block_advance_39
    block_ptr_27 = block_advance_40
    zero_23 = add_38
    zero_24 = reduce_sum_35
  div_41 = zero_23 / zero_24
  converted_42 = div_41.to(tl.float16)
  block_store_43 = tl.store(block_ptr_20, converted_42)

def bench_KeyFormer_p9():
  dev = torch.cuda.current_device()
  rand_arg_0 = torch.randn(1, 4096, 32, 128, dtype=torch.float16, device=dev)
  rand_arg_1 = torch.randn(1, 4096, 32, 128, dtype=torch.float16, device=dev)
  rand_arg_2 = torch.randn(1, 32, 4096, 4096, dtype=torch.float32, device=dev)
  avg_ms = triton.testing.do_bench(lambda: KeyFormer_p9(rand_arg_0, rand_arg_1, rand_arg_2))
  print('[KeyFormer_p9] avg_ms:', avg_ms)

def KeyFormer_p9(arg0: torch.Tensor, arg1: torch.Tensor, arg2: torch.Tensor) -> torch.Tensor:
  dev = arg0.device
  autotune_key = torch.cuda.get_device_capability(dev)[0]
  tensor_0 = arg0
  tensor_1 = arg1
  tensor_2 = arg2
  empty_ptr_3 = torch.empty(1, 32, 4096, 1, dtype=torch.float32, device=dev)
  grid = (1, 32, 32)
  KeyFormer_p9_kernel[grid](tensor_0, tensor_1, tensor_2, empty_ptr_3, autotune_key)
  tensor_4 = empty_ptr_3
  return tensor_4

@triton.autotune(configs=[
  triton.Config({}, num_warps=4),
  triton.Config({}, num_warps=8),
], key=['autotune_key'])
@triton.jit
def KeyFormer_p9_kernel(
  arg_0,
  arg_1,
  arg_2,
  arg_3,
  autotune_key,
):
  pid_4 = tl.program_id(0)
  pid_5 = tl.program_id(1)
  pid_6 = tl.program_id(2)
  const_7 = 1.131250e+01
  const_8 = 9.617967e-01
  const_9 = float('-inf')
  const_10 = 0.000000e+00
  const_11 = 0
  const_12 = 16777216
  const_13 = 1
  const_14 = 4096
  const_15 = 128
  mul_16 = pid_5 * const_15
  mul_17 = mul_16 * const_14
  mul_18 = pid_6 * const_15
  add_19 = mul_17 + mul_18
  block_ptr_20 = tl.make_block_ptr(
    base=arg_0 + add_19,
    shape=(128, 128,),
    strides=(4096, 1,),
    offsets=(0, 0,),
    block_shape=(128, 128,),
    order=(1, 0,),
  )
  block_load_21 = tl.load(block_ptr_20)
  mul_22 = pid_6 * const_12
  add_23 = mul_17 + mul_22
  mul_24 = pid_6 * const_14
  add_25 = mul_16 + mul_24
  block_ptr_26 = tl.make_block_ptr(
    base=arg_3 + add_25,
    shape=(128, 1,),
    strides=(1, 1,),
    offsets=(0, 0,),
    block_shape=(128, 1,),
    order=(1, 0,),
  )
  converted_27 = const_7
  div_28 = block_load_21 / converted_27
  div_28 = div_28.to(tl.float16)
  zero_29 = tl.zeros([128, 1], dtype=tl.float32)
  add_30 = mul_16 + const_15
  block_ptr_31 = tl.make_block_ptr(
    base=arg_1 + mul_18,
    shape=(128, 4096,),
    strides=(1, 4096,),
    offsets=(0, 0,),
    block_shape=(128, 128,),
    order=(0, 1,),
  )
  block_ptr_32 = tl.make_block_ptr(
    base=arg_2 + add_23,
    shape=(128, 4096,),
    strides=(4096, 1,),
    offsets=(0, 0,),
    block_shape=(128, 128,),
    order=(1, 0,),
  )
  for i_33 in range(const_11, add_30, const_15):
    block_load_34 = tl.load(block_ptr_31)
    block_load_35 = tl.load(block_ptr_32)
    log_36 = tl.math.log(block_load_35)
    neg_37 = -(log_36)
    mul_38 = neg_37 * const_8
    where_39 = tl.zeros([128, 128], dtype=tl.float32)
    where_39 = tl.where(mul_16 + tl.arange(0, 128)[:, None] >= i_33 + tl.arange(0, 128)[None, :], where_39, float('-inf'))
    converted_40 = const_8
    mul_41 = block_load_34 * converted_40
    mul_41 = mul_41.to(tl.float16)
    dot_42 = tl.dot(div_28, mul_41)
    add_43 = dot_42 + where_39
    add_44 = add_43 + mul_38
    exp2_45 = tl.math.exp2(add_44)
    reduce_sum_46 = tl.sum(exp2_45, axis=1, keep_dims=True).to(tl.float32)
    reduce_sum_46 += zero_29
    block_advance_47 = tl.advance(block_ptr_31, (0, 128,))
    block_advance_48 = tl.advance(block_ptr_32, (0, 128,))
    block_ptr_31 = block_advance_47
    block_ptr_32 = block_advance_48
    zero_29 = reduce_sum_46
  block_store_49 = tl.store(block_ptr_26, zero_29)

def bench_KeyFormer_p7():
  dev = torch.cuda.current_device()
  rand_arg_0 = torch.randn(1, 4096, 32, 128, dtype=torch.float16, device=dev)
  rand_arg_1 = torch.randn(1, 4096, 32, 128, dtype=torch.float16, device=dev)
  rand_arg_2 = torch.randn(1, 32, 4096, 4096, dtype=torch.float32, device=dev)
  rand_arg_3 = torch.randn(1, 32, 4096, 1, dtype=torch.float32, device=dev)
  avg_ms = triton.testing.do_bench(lambda: KeyFormer_p7(rand_arg_0, rand_arg_1, rand_arg_2, rand_arg_3))
  print('[KeyFormer_p7] avg_ms:', avg_ms)

def KeyFormer_p7(arg0: torch.Tensor, arg1: torch.Tensor, arg2: torch.Tensor, arg3: torch.Tensor) -> torch.Tensor:
  dev = arg0.device
  autotune_key = torch.cuda.get_device_capability(dev)[0]
  tensor_0 = arg0
  tensor_1 = arg1
  tensor_2 = arg2
  tensor_3 = arg3
  empty_ptr_4 = torch.empty(1, 32, 4096, dtype=torch.float32, device=dev)
  grid = (1, 32, 32)
  KeyFormer_p7_kernel[grid](tensor_0, tensor_1, tensor_2, tensor_3, empty_ptr_4, autotune_key)
  tensor_5 = empty_ptr_4
  return tensor_5

@triton.autotune(configs=[
  triton.Config({}, num_warps=4),
  triton.Config({}, num_warps=8),
], key=['autotune_key'])
@triton.jit
def KeyFormer_p7_kernel(
  arg_0,
  arg_1,
  arg_2,
  arg_3,
  arg_4,
  autotune_key,
):
  pid_5 = tl.program_id(0)
  pid_6 = tl.program_id(1)
  pid_7 = tl.program_id(2)
  const_8 = 1.131250e+01
  const_9 = 9.617967e-01
  const_10 = float('-inf')
  const_11 = 0.000000e+00
  const_12 = 16777216
  const_13 = 4096
  const_14 = 128
  const_15 = 1
  mul_16 = pid_6 * const_14
  mul_17 = pid_7 * const_14
  mul_18 = mul_17 * const_13
  add_19 = mul_16 + mul_18
  block_ptr_20 = tl.make_block_ptr(
    base=arg_1 + add_19,
    shape=(128, 128,),
    strides=(1, 4096,),
    offsets=(0, 0,),
    block_shape=(128, 128,),
    order=(0, 1,),
  )
  block_load_21 = tl.load(block_ptr_20)
  mul_22 = pid_6 * const_12
  add_23 = mul_22 + mul_17
  mul_24 = pid_6 * const_13
  add_25 = mul_24 + mul_17
  block_ptr_26 = tl.make_block_ptr(
    base=arg_4 + add_25,
    shape=(128,),
    strides=(1,),
    offsets=(0,),
    block_shape=(128,),
    order=(0,),
  )
  converted_27 = const_9
  mul_28 = block_load_21 * converted_27
  mul_28 = mul_28.to(tl.float16)
  zero_29 = tl.zeros([128], dtype=tl.float32)
  block_ptr_30 = tl.make_block_ptr(
    base=arg_0 + add_19,
    shape=(4096, 128,),
    strides=(4096, 1,),
    offsets=(0, 0,),
    block_shape=(128, 128,),
    order=(1, 0,),
  )
  add_31 = mul_18 + add_23
  block_ptr_32 = tl.make_block_ptr(
    base=arg_2 + add_31,
    shape=(4096, 128,),
    strides=(4096, 1,),
    offsets=(0, 0,),
    block_shape=(128, 128,),
    order=(1, 0,),
  )
  block_ptr_33 = tl.make_block_ptr(
    base=arg_3 + add_25,
    shape=(4096,),
    strides=(1,),
    offsets=(0,),
    block_shape=(128,),
    order=(0,),
  )
  for i_34 in range(mul_17, const_13, const_14):
    block_load_35 = tl.load(block_ptr_30)
    block_load_36 = tl.load(block_ptr_32)
    block_load_37 = tl.load(block_ptr_33)
    log_38 = tl.math.log(block_load_36)
    neg_39 = -(log_38)
    mul_40 = neg_39 * const_9
    where_41 = tl.zeros([128, 128], dtype=tl.float32)
    where_41 = tl.where(i_34 + tl.arange(0, 128)[:, None] >= mul_17 + tl.arange(0, 128)[None, :], where_41, float('-inf'))
    converted_42 = const_8
    div_43 = block_load_35 / converted_42
    div_43 = div_43.to(tl.float16)
    dot_44 = tl.dot(div_43, mul_28)
    add_45 = dot_44 + where_41
    add_46 = add_45 + mul_40
    exp2_47 = tl.math.exp2(add_46)
    unsqueeze_48 = block_load_37[:, None]
    div_49 = exp2_47 / unsqueeze_48
    reduce_sum_50 = tl.sum(div_49, axis=0, keep_dims=False).to(tl.float32)
    reduce_sum_50 += zero_29
    block_advance_51 = tl.advance(block_ptr_30, (128, 0,))
    block_advance_52 = tl.advance(block_ptr_32, (128, 0,))
    block_advance_53 = tl.advance(block_ptr_33, (128,))
    block_ptr_30 = block_advance_51
    block_ptr_32 = block_advance_52
    block_ptr_33 = block_advance_53
    zero_29 = reduce_sum_50
  block_store_54 = tl.store(block_ptr_26, zero_29)

def KeyFormer(arg_0, arg_1, arg_2, arg_3):
  k0_out_0 = KeyFormer_p1(arg_0, arg_2, arg_1)
  k1_out_0 = KeyFormer_p9(arg_0, arg_1, arg_3)
  k2_out_0 = KeyFormer_p7(arg_0, arg_1, arg_3, k1_out_0)
  return k0_out_0, k2_out_0

write code to /tmp/tmpl3kmag7f.py
start_peak_mem_mib=2176.0
end_peak_mem_mib=2465.0
gflops=137.438953472
mib=2465.0
checking our...
out loss: {'abs_max': 0.001953125, 'abs_mean': 2.7582870298914486e-05, 'rel_max': inf, 'rel_mean': inf, 'nz_rel_max': 994.0, 'nz_rel_mean': 0.006222191583071725, 'mse': 2.319242889984175e-09, 'rmse': 4.8158518353290055e-05}
kf_score loss: {'abs_max': 0.0007076263427734375, 'abs_mean': 1.531024047368712e-05, 'rel_max': 0.000879101213581374, 'rel_mean': 1.7875005561527632e-05, 'nz_rel_max': 0.000879101213581374, 'nz_rel_mean': 1.7875005561527632e-05, 'mse': 8.165945942718722e-10, 'rmse': 2.8576119300420626e-05}
warmup start
warmup done
[our] avg 3.0668 ms, min 3.0272 ms, max 3.1636 ms, 44815.42037653919 gflops/s (10 runs, 100 warmups, profiled)
