srun: job 5093 queued and waiting for resources
srun: job 5093 has been allocated resources
model='h2o' system='our' seqlen=4096
input_names=['q', 'k', 'v']
output_names=['out', 'h2o_score']
check=True
graph main_graph (
  %q[FLOAT16, 1x4096x32x128]
  %k[FLOAT16, 1x4096x32x128]
  %v[FLOAT16, 1x4096x32x128]
) {
  %/Constant_output_0 = Constant[value = <Tensor>]()
  %/Constant_1_output_0 = Constant[value = <Scalar Tensor []>]()
  %/Trilu_output_0 = Trilu[upper = 1](%/Constant_output_0, %/Constant_1_output_0)
  %/Transpose_output_0 = Transpose[perm = [0, 2, 1, 3]](%q)
  %/Transpose_1_output_0 = Transpose[perm = [0, 2, 1, 3]](%v)
  %/Transpose_2_output_0 = Transpose[perm = [0, 2, 3, 1]](%k)
  %/MatMul_output_0 = MatMul(%/Transpose_output_0, %/Transpose_2_output_0)
  %/Constant_2_output_0 = Constant[value = <Scalar Tensor []>]()
  %/Div_output_0 = Div(%/MatMul_output_0, %/Constant_2_output_0)
  %/Add_output_0 = Add(%/Div_output_0, %/Trilu_output_0)
  %/Cast_output_0 = Cast[to = 1](%/Add_output_0)
  %/Softmax_output_0 = Softmax[axis = -1](%/Cast_output_0)
  %/Cast_1_output_0 = Cast[to = 10](%/Softmax_output_0)
  %/MatMul_1_output_0 = MatMul(%/Cast_1_output_0, %/Transpose_1_output_0)
  %/Transpose_3_output_0 = Transpose[perm = [0, 2, 1, 3]](%/MatMul_1_output_0)
  %onnx::ReduceSum_21 = Constant[value = <Tensor>]()
  %/ReduceSum_output_0 = ReduceSum[keepdims = 0](%/Softmax_output_0, %onnx::ReduceSum_21)
  %/Constant_3_output_0 = Constant[value = <Tensor>]()
  %out = Reshape[allowzero = 0](%/Transpose_3_output_0, %/Constant_3_output_0)
  %/Constant_4_output_0 = Constant[value = <Tensor>]()
  %h2o_score = Reshape[allowzero = 0](%/ReduceSum_output_0, %/Constant_4_output_0)
  return %out, %h2o_score
}
/home/ppopp25_ae/ppopp25_ae/3rd/asuka/python/asuka/translate.py:217: UserWarning: The given NumPy array is not writable, and PyTorch does not support non-writable tensors. This means writing to this tensor will result in undefined behavior. You may want to copy the array to protect its data or make it writable before converting it to a tensor. This type of warning will be suppressed for the rest of this program. (Triggered internally at ../torch/csrc/utils/tensor_numpy.cpp:206.)
  operand_torch = torch.from_numpy(operand)
module {
  func.func @H2O(%arg0: tensor<1x4096x32x128xf16>, %arg1: tensor<1x4096x32x128xf16>, %arg2: tensor<1x4096x32x128xf16>) -> (tensor<1x4096x32x128xf16>, tensor<1x32x4096xf32>) {
    %0 = asuka.trilu diagonal = 1, is_upper = true, shape = [4096, 4096], val = 0xFC00 : f16
    %1 = asuka.permute %arg0, dims = [0, 2, 1, 3] : (tensor<1x4096x32x128xf16>) -> tensor<1x32x4096x128xf16>
    %2 = asuka.permute %arg2, dims = [0, 2, 1, 3] : (tensor<1x4096x32x128xf16>) -> tensor<1x32x4096x128xf16>
    %3 = asuka.permute %arg1, dims = [0, 2, 3, 1] : (tensor<1x4096x32x128xf16>) -> tensor<1x32x128x4096xf16>
    %4 = asuka.dot %1, %3 : (tensor<1x32x4096x128xf16>, tensor<1x32x128x4096xf16>) -> tensor<1x32x4096x4096xf16>
    %cst = arith.constant dense<1.131250e+01> : tensor<1xf16>
    %5 = asuka.div %4, %cst : (tensor<1x32x4096x4096xf16>, tensor<1xf16>) -> tensor<1x32x4096x4096xf16>
    %6 = asuka.add %5, %0 : (tensor<1x32x4096x4096xf16>, tensor<4096x4096xf16>) -> tensor<1x32x4096x4096xf16>
    %7 = asuka.convert %6, type = f32 : (tensor<1x32x4096x4096xf16>) -> tensor<1x32x4096x4096xf32>
    %8 = asuka.softmax %7, dim = -1 : (tensor<1x32x4096x4096xf32>) -> tensor<1x32x4096x4096xf32>
    %9 = asuka.convert %8, type = f16 : (tensor<1x32x4096x4096xf32>) -> tensor<1x32x4096x4096xf16>
    %10 = asuka.dot %9, %2 : (tensor<1x32x4096x4096xf16>, tensor<1x32x4096x128xf16>) -> tensor<1x32x4096x128xf16>
    %11 = asuka.permute %10, dims = [0, 2, 1, 3] : (tensor<1x32x4096x128xf16>) -> tensor<1x4096x32x128xf16>
    %12 = asuka.reduce(%8), dim = 2, op =  ADD, keep_dim = false : (tensor<1x32x4096x4096xf32>) -> tensor<1x32x4096xf32>
    %13 = asuka.reshape %11 : (tensor<1x4096x32x128xf16>) -> tensor<1x4096x32x128xf16>
    %14 = asuka.reshape %12 : (tensor<1x32x4096xf32>) -> tensor<1x32x4096xf32>
    return %13, %14 : tensor<1x4096x32x128xf16>, tensor<1x32x4096xf32>
  }
}
idx=0 arith.constant
idx=1 asuka.trilu
idx=2 asuka.permute
idx=3 asuka.permute
idx=4 asuka.permute
idx=5 asuka.dot
idx=6 asuka.div
idx=7 asuka.add
idx=8 asuka.convert
idx=9 asuka.exp
idx=10 asuka.reduce
idx=11 asuka.div
idx=12 asuka.convert
idx=13 asuka.dot
idx=14 asuka.permute
idx=15 asuka.reduce
len(connected_partitions)=724
pruning bad partition(provide_output=False):   0%|          | 0/724 [00:00<?, ?it/s]pruning bad partition(provide_output=False):  31%|███       | 226/724 [00:00<00:00, 2259.16it/s]pruning bad partition(provide_output=False):  65%|██████▍   | 467/724 [00:00<00:00, 2347.77it/s]pruning bad partition(provide_output=False):  97%|█████████▋| 702/724 [00:00<00:00, 2317.22it/s]pruning bad partition(provide_output=False): 100%|██████████| 724/724 [00:00<00:00, 2313.28it/s]
after pruning bad partition: len(connected_partitions)=101
pruning bad para partition:   0%|          | 0/101 [00:00<?, ?it/s]pruning bad para partition:  61%|██████▏   | 62/101 [00:00<00:00, 612.19it/s]pruning bad para partition: 100%|██████████| 101/101 [00:00<00:00, 626.34it/s]
after pruning bad para partition: len(connected_partitions)=55
max_metric:  536870912.0
tall_and_thin tensors: 7
expand and pruning bad ai partition:   0%|          | 0/55 [00:00<?, ?it/s]expand and pruning bad ai partition:  56%|█████▋    | 31/55 [00:00<00:00, 54.54it/s]expand and pruning bad ai partition:  95%|█████████▍| 52/55 [00:00<00:00, 59.92it/s]expand and pruning bad ai partition: 100%|██████████| 55/55 [00:00<00:00, 61.17it/s]
after expand and pruning bad ai partition: len(connected_partitions)=10
pruning bad partition(provide_output=True):   0%|          | 0/10 [00:00<?, ?it/s]pruning bad partition(provide_output=True): 100%|██████████| 10/10 [00:00<00:00, 2267.68it/s]
after pruning bad partition(provide_output=True): len(connected_partitions)=5
module {
  func.func @H2O(%arg0: tensor<1x4096x32x128xf16>, %arg1: tensor<1x4096x32x128xf16>, %arg2: tensor<1x4096x32x128xf16>) -> (tensor<1x4096x32x128xf16>, tensor<1x32x4096xf32>) {
    %cst = arith.constant dense<1.131250e+01> : tensor<1xf16>
    %0 = asuka.trilu diagonal = 1, is_upper = true, shape = [4096, 4096], val = 0xFC00 : f16
    %1 = asuka.permute %arg0, dims = [0, 2, 1, 3] : (tensor<1x4096x32x128xf16>) -> tensor<1x32x4096x128xf16>
    %2 = asuka.permute %arg2, dims = [0, 2, 1, 3] : (tensor<1x4096x32x128xf16>) -> tensor<1x32x4096x128xf16>
    %3 = asuka.permute %arg1, dims = [0, 2, 3, 1] : (tensor<1x4096x32x128xf16>) -> tensor<1x32x128x4096xf16>
    %4 = asuka.dot %1, %3 : (tensor<1x32x4096x128xf16>, tensor<1x32x128x4096xf16>) -> tensor<1x32x4096x4096xf16>
    %5 = asuka.div %4, %cst : (tensor<1x32x4096x4096xf16>, tensor<1xf16>) -> tensor<1x32x4096x4096xf16>
    %6 = asuka.add %5, %0 : (tensor<1x32x4096x4096xf16>, tensor<4096x4096xf16>) -> tensor<1x32x4096x4096xf16>
    %7 = asuka.convert %6, type = f32 : (tensor<1x32x4096x4096xf16>) -> tensor<1x32x4096x4096xf32>
    %8 = asuka.exp %7 : (tensor<1x32x4096x4096xf32>) -> tensor<1x32x4096x4096xf32>
    %9 = asuka.reduce(%8), dim = -1, op =  ADD, keep_dim = true : (tensor<1x32x4096x4096xf32>) -> tensor<1x32x4096x1xf32>
    %10 = asuka.div %8, %9 : (tensor<1x32x4096x4096xf32>, tensor<1x32x4096x1xf32>) -> tensor<1x32x4096x4096xf32>
    %11 = asuka.convert %10, type = f16 : (tensor<1x32x4096x4096xf32>) -> tensor<1x32x4096x4096xf16>
    %12 = asuka.dot %11, %2 : (tensor<1x32x4096x4096xf16>, tensor<1x32x4096x128xf16>) -> tensor<1x32x4096x128xf16>
    %13 = asuka.permute %12, dims = [0, 2, 1, 3] : (tensor<1x32x4096x128xf16>) -> tensor<1x4096x32x128xf16>
    %14 = asuka.reduce(%10), dim = 2, op =  ADD, keep_dim = false : (tensor<1x32x4096x4096xf32>) -> tensor<1x32x4096xf32>
    return %13, %14 : tensor<1x4096x32x128xf16>, tensor<1x32x4096xf32>
  }
  asuka.kernel @H2O_p0(%arg0: tensor<1x4096x32x128xf16>, %arg1: tensor<1x4096x32x128xf16>, %arg2: tensor<1x4096x32x128xf16>, %arg3: tensor<1x32x4096x1xf32>) -> tensor<1x4096x32x128xf16> {
    %cst = arith.constant dense<1.131250e+01> : tensor<1xf16>
    %0 = asuka.trilu diagonal = 1, is_upper = true, shape = [4096, 4096], val = 0xFC00 : f16
    %1 = asuka.permute %arg0, dims = [0, 2, 1, 3] : (tensor<1x4096x32x128xf16>) -> tensor<1x32x4096x128xf16>
    %2 = asuka.permute %arg1, dims = [0, 2, 1, 3] : (tensor<1x4096x32x128xf16>) -> tensor<1x32x4096x128xf16>
    %3 = asuka.permute %arg2, dims = [0, 2, 3, 1] : (tensor<1x4096x32x128xf16>) -> tensor<1x32x128x4096xf16>
    %4 = asuka.dot %1, %3 : (tensor<1x32x4096x128xf16>, tensor<1x32x128x4096xf16>) -> tensor<1x32x4096x4096xf16>
    %5 = asuka.div %4, %cst : (tensor<1x32x4096x4096xf16>, tensor<1xf16>) -> tensor<1x32x4096x4096xf16>
    %6 = asuka.add %5, %0 : (tensor<1x32x4096x4096xf16>, tensor<4096x4096xf16>) -> tensor<1x32x4096x4096xf16>
    %7 = asuka.convert %6, type = f32 : (tensor<1x32x4096x4096xf16>) -> tensor<1x32x4096x4096xf32>
    %8 = asuka.exp %7 : (tensor<1x32x4096x4096xf32>) -> tensor<1x32x4096x4096xf32>
    %9 = asuka.div %8, %arg3 : (tensor<1x32x4096x4096xf32>, tensor<1x32x4096x1xf32>) -> tensor<1x32x4096x4096xf32>
    %10 = asuka.convert %9, type = f16 : (tensor<1x32x4096x4096xf32>) -> tensor<1x32x4096x4096xf16>
    %11 = asuka.dot %10, %2 : (tensor<1x32x4096x4096xf16>, tensor<1x32x4096x128xf16>) -> tensor<1x32x4096x128xf16>
    %12 = asuka.permute %11, dims = [0, 2, 1, 3] : (tensor<1x32x4096x128xf16>) -> tensor<1x4096x32x128xf16>
    asuka.return %12 : tensor<1x4096x32x128xf16>
  }
  asuka.kernel @H2O_p1(%arg0: tensor<1x4096x32x128xf16>, %arg1: tensor<1x4096x32x128xf16>, %arg2: tensor<1x4096x32x128xf16>) -> (tensor<1x32x4096x1xf32>, tensor<1x4096x32x128xf16>) {
    %cst = arith.constant dense<1.131250e+01> : tensor<1xf16>
    %0 = asuka.trilu diagonal = 1, is_upper = true, shape = [4096, 4096], val = 0xFC00 : f16
    %1 = asuka.permute %arg0, dims = [0, 2, 1, 3] : (tensor<1x4096x32x128xf16>) -> tensor<1x32x4096x128xf16>
    %2 = asuka.permute %arg1, dims = [0, 2, 1, 3] : (tensor<1x4096x32x128xf16>) -> tensor<1x32x4096x128xf16>
    %3 = asuka.permute %arg2, dims = [0, 2, 3, 1] : (tensor<1x4096x32x128xf16>) -> tensor<1x32x128x4096xf16>
    %4 = asuka.dot %1, %3 : (tensor<1x32x4096x128xf16>, tensor<1x32x128x4096xf16>) -> tensor<1x32x4096x4096xf16>
    %5 = asuka.div %4, %cst : (tensor<1x32x4096x4096xf16>, tensor<1xf16>) -> tensor<1x32x4096x4096xf16>
    %6 = asuka.add %5, %0 : (tensor<1x32x4096x4096xf16>, tensor<4096x4096xf16>) -> tensor<1x32x4096x4096xf16>
    %7 = asuka.convert %6, type = f32 : (tensor<1x32x4096x4096xf16>) -> tensor<1x32x4096x4096xf32>
    %8 = asuka.exp %7 : (tensor<1x32x4096x4096xf32>) -> tensor<1x32x4096x4096xf32>
    %9 = asuka.reduce(%8), dim = -1, op =  ADD, keep_dim = true : (tensor<1x32x4096x4096xf32>) -> tensor<1x32x4096x1xf32>
    %10 = asuka.div %8, %9 : (tensor<1x32x4096x4096xf32>, tensor<1x32x4096x1xf32>) -> tensor<1x32x4096x4096xf32>
    %11 = asuka.convert %10, type = f16 : (tensor<1x32x4096x4096xf32>) -> tensor<1x32x4096x4096xf16>
    %12 = asuka.dot %11, %2 : (tensor<1x32x4096x4096xf16>, tensor<1x32x4096x128xf16>) -> tensor<1x32x4096x128xf16>
    %13 = asuka.permute %12, dims = [0, 2, 1, 3] : (tensor<1x32x4096x128xf16>) -> tensor<1x4096x32x128xf16>
    asuka.return %9, %13 : tensor<1x32x4096x1xf32>, tensor<1x4096x32x128xf16>
  }
  asuka.kernel @H2O_p2(%arg0: tensor<1x4096x32x128xf16>, %arg1: tensor<1x4096x32x128xf16>, %arg2: tensor<1x4096x32x128xf16>) -> tensor<1x4096x32x128xf16> {
    %cst = arith.constant dense<1.131250e+01> : tensor<1xf16>
    %0 = asuka.trilu diagonal = 1, is_upper = true, shape = [4096, 4096], val = 0xFC00 : f16
    %1 = asuka.permute %arg0, dims = [0, 2, 1, 3] : (tensor<1x4096x32x128xf16>) -> tensor<1x32x4096x128xf16>
    %2 = asuka.permute %arg1, dims = [0, 2, 1, 3] : (tensor<1x4096x32x128xf16>) -> tensor<1x32x4096x128xf16>
    %3 = asuka.permute %arg2, dims = [0, 2, 3, 1] : (tensor<1x4096x32x128xf16>) -> tensor<1x32x128x4096xf16>
    %4 = asuka.dot %1, %3 : (tensor<1x32x4096x128xf16>, tensor<1x32x128x4096xf16>) -> tensor<1x32x4096x4096xf16>
    %5 = asuka.div %4, %cst : (tensor<1x32x4096x4096xf16>, tensor<1xf16>) -> tensor<1x32x4096x4096xf16>
    %6 = asuka.add %5, %0 : (tensor<1x32x4096x4096xf16>, tensor<4096x4096xf16>) -> tensor<1x32x4096x4096xf16>
    %7 = asuka.convert %6, type = f32 : (tensor<1x32x4096x4096xf16>) -> tensor<1x32x4096x4096xf32>
    %8 = asuka.exp %7 : (tensor<1x32x4096x4096xf32>) -> tensor<1x32x4096x4096xf32>
    %9 = asuka.reduce(%8), dim = -1, op =  ADD, keep_dim = true : (tensor<1x32x4096x4096xf32>) -> tensor<1x32x4096x1xf32>
    %10 = asuka.div %8, %9 : (tensor<1x32x4096x4096xf32>, tensor<1x32x4096x1xf32>) -> tensor<1x32x4096x4096xf32>
    %11 = asuka.convert %10, type = f16 : (tensor<1x32x4096x4096xf32>) -> tensor<1x32x4096x4096xf16>
    %12 = asuka.dot %11, %2 : (tensor<1x32x4096x4096xf16>, tensor<1x32x4096x128xf16>) -> tensor<1x32x4096x128xf16>
    %13 = asuka.permute %12, dims = [0, 2, 1, 3] : (tensor<1x32x4096x128xf16>) -> tensor<1x4096x32x128xf16>
    asuka.return %13 : tensor<1x4096x32x128xf16>
  }
  asuka.kernel @H2O_p3(%arg0: tensor<1x4096x32x128xf16>, %arg1: tensor<1x4096x32x128xf16>) -> tensor<1x32x4096x1xf32> {
    %cst = arith.constant dense<1.131250e+01> : tensor<1xf16>
    %0 = asuka.trilu diagonal = 1, is_upper = true, shape = [4096, 4096], val = 0xFC00 : f16
    %1 = asuka.permute %arg0, dims = [0, 2, 1, 3] : (tensor<1x4096x32x128xf16>) -> tensor<1x32x4096x128xf16>
    %2 = asuka.permute %arg1, dims = [0, 2, 3, 1] : (tensor<1x4096x32x128xf16>) -> tensor<1x32x128x4096xf16>
    %3 = asuka.dot %1, %2 : (tensor<1x32x4096x128xf16>, tensor<1x32x128x4096xf16>) -> tensor<1x32x4096x4096xf16>
    %4 = asuka.div %3, %cst : (tensor<1x32x4096x4096xf16>, tensor<1xf16>) -> tensor<1x32x4096x4096xf16>
    %5 = asuka.add %4, %0 : (tensor<1x32x4096x4096xf16>, tensor<4096x4096xf16>) -> tensor<1x32x4096x4096xf16>
    %6 = asuka.convert %5, type = f32 : (tensor<1x32x4096x4096xf16>) -> tensor<1x32x4096x4096xf32>
    %7 = asuka.exp %6 : (tensor<1x32x4096x4096xf32>) -> tensor<1x32x4096x4096xf32>
    %8 = asuka.reduce(%7), dim = -1, op =  ADD, keep_dim = true : (tensor<1x32x4096x4096xf32>) -> tensor<1x32x4096x1xf32>
    asuka.return %8 : tensor<1x32x4096x1xf32>
  }
  asuka.kernel @H2O_p4(%arg0: tensor<1x4096x32x128xf16>, %arg1: tensor<1x4096x32x128xf16>, %arg2: tensor<1x32x4096x1xf32>) -> tensor<1x32x4096xf32> {
    %cst = arith.constant dense<1.131250e+01> : tensor<1xf16>
    %0 = asuka.trilu diagonal = 1, is_upper = true, shape = [4096, 4096], val = 0xFC00 : f16
    %1 = asuka.permute %arg0, dims = [0, 2, 1, 3] : (tensor<1x4096x32x128xf16>) -> tensor<1x32x4096x128xf16>
    %2 = asuka.permute %arg1, dims = [0, 2, 3, 1] : (tensor<1x4096x32x128xf16>) -> tensor<1x32x128x4096xf16>
    %3 = asuka.dot %1, %2 : (tensor<1x32x4096x128xf16>, tensor<1x32x128x4096xf16>) -> tensor<1x32x4096x4096xf16>
    %4 = asuka.div %3, %cst : (tensor<1x32x4096x4096xf16>, tensor<1xf16>) -> tensor<1x32x4096x4096xf16>
    %5 = asuka.add %4, %0 : (tensor<1x32x4096x4096xf16>, tensor<4096x4096xf16>) -> tensor<1x32x4096x4096xf16>
    %6 = asuka.convert %5, type = f32 : (tensor<1x32x4096x4096xf16>) -> tensor<1x32x4096x4096xf32>
    %7 = asuka.exp %6 : (tensor<1x32x4096x4096xf32>) -> tensor<1x32x4096x4096xf32>
    %8 = asuka.div %7, %arg2 : (tensor<1x32x4096x4096xf32>, tensor<1x32x4096x1xf32>) -> tensor<1x32x4096x4096xf32>
    %9 = asuka.reduce(%8), dim = 2, op =  ADD, keep_dim = false : (tensor<1x32x4096x4096xf32>) -> tensor<1x32x4096xf32>
    asuka.return %9 : tensor<1x32x4096xf32>
  }
}
optimize H2O_p0
optimize H2O_p1
optimize H2O_p2
optimize H2O_p3
optimize H2O_p4
tuning time: 2.4454123973846436 sec
Skip op: func.func
path: /tmp/tmpg2i8_1ys.py
profiling...
out_str='[H2O_p0] avg_ms: 0.5506497025489807\n[H2O_p1] avg_ms: 0.5644758343696594\n[H2O_p2] avg_ms: 0.560509979724884\n[H2O_p3] avg_ms: 0.5788263082504272\n[H2O_p4] avg_ms: 0.689558744430542\n'
[H2O_p0] avg_ms: 0.5506497025489807
[H2O_p1] avg_ms: 0.5644758343696594
[H2O_p2] avg_ms: 0.560509979724884
[H2O_p3] avg_ms: 0.5788263082504272
[H2O_p4] avg_ms: 0.689558744430542
best_kernel:

H2O_p1
H2O_p4
best_time=1.2540345788002014
import math
import torch
import torch.nn as nn
import torch.nn.functional as F
import triton
import triton.language as tl
from typing import Callable, Any, Optional, Tuple

def bench_H2O_p1():
  dev = torch.cuda.current_device()
  rand_arg_0 = torch.randn(1, 4096, 32, 128, dtype=torch.float16, device=dev)
  rand_arg_1 = torch.randn(1, 4096, 32, 128, dtype=torch.float16, device=dev)
  rand_arg_2 = torch.randn(1, 4096, 32, 128, dtype=torch.float16, device=dev)
  avg_ms = triton.testing.do_bench(lambda: H2O_p1(rand_arg_0, rand_arg_1, rand_arg_2))
  print('[H2O_p1] avg_ms:', avg_ms)

def H2O_p1(arg0: torch.Tensor, arg1: torch.Tensor, arg2: torch.Tensor) -> Tuple[torch.Tensor, torch.Tensor]:
  dev = arg0.device
  autotune_key = torch.cuda.get_device_capability(dev)[0]
  tensor_0 = arg0
  tensor_1 = arg1
  tensor_2 = arg2
  empty_ptr_3 = torch.empty(1, 32, 4096, 1, dtype=torch.float32, device=dev)
  empty_ptr_4 = torch.empty(1, 4096, 32, 128, dtype=torch.float16, device=dev)
  grid = (1, 32, 32)
  H2O_p1_kernel[grid](tensor_0, tensor_1, tensor_2, empty_ptr_3, empty_ptr_4, autotune_key)
  tensor_5 = empty_ptr_3
  tensor_6 = empty_ptr_4
  return tensor_5, tensor_6

@triton.autotune(configs=[
  triton.Config({}, num_warps=4),
  triton.Config({}, num_warps=8),
], key=['autotune_key'])
@triton.jit
def H2O_p1_kernel(
  arg_0,
  arg_1,
  arg_2,
  arg_3,
  arg_4,
  autotune_key,
):
  pid_5 = tl.program_id(0)
  pid_6 = tl.program_id(1)
  pid_7 = tl.program_id(2)
  const_8 = 1.275311e-01
  const_9 = float('-inf')
  const_10 = 0.000000e+00
  const_11 = 0
  const_12 = 1
  const_13 = 4096
  const_14 = 128
  mul_15 = pid_6 * const_14
  mul_16 = mul_15 * const_13
  mul_17 = pid_7 * const_14
  add_18 = mul_16 + mul_17
  block_ptr_19 = tl.make_block_ptr(
    base=arg_0 + add_18,
    shape=(128, 128,),
    strides=(4096, 1,),
    offsets=(0, 0,),
    block_shape=(128, 128,),
    order=(1, 0,),
  )
  block_load_20 = tl.load(block_ptr_19)
  mul_21 = pid_7 * const_13
  add_22 = mul_15 + mul_21
  block_ptr_23 = tl.make_block_ptr(
    base=arg_3 + add_22,
    shape=(128, 1,),
    strides=(1, 1,),
    offsets=(0, 0,),
    block_shape=(128, 1,),
    order=(1, 0,),
  )
  block_ptr_24 = tl.make_block_ptr(
    base=arg_4 + add_18,
    shape=(128, 128,),
    strides=(4096, 1,),
    offsets=(0, 0,),
    block_shape=(128, 128,),
    order=(1, 0,),
  )
  converted_25 = const_8
  mul_26 = block_load_20 * converted_25
  mul_26 = mul_26.to(tl.float16)
  zero_27 = tl.zeros([128, 128], dtype=tl.float32)
  zero_28 = tl.zeros([128, 1], dtype=tl.float32)
  add_29 = mul_15 + const_14
  block_ptr_30 = tl.make_block_ptr(
    base=arg_2 + mul_17,
    shape=(128, 4096,),
    strides=(1, 4096,),
    offsets=(0, 0,),
    block_shape=(128, 128,),
    order=(0, 1,),
  )
  block_ptr_31 = tl.make_block_ptr(
    base=arg_1 + mul_17,
    shape=(4096, 128,),
    strides=(4096, 1,),
    offsets=(0, 0,),
    block_shape=(128, 128,),
    order=(1, 0,),
  )
  for i_32 in range(const_11, add_29, const_14):
    block_load_33 = tl.load(block_ptr_30)
    block_load_34 = tl.load(block_ptr_31)
    dot_35 = tl.dot(mul_26, block_load_33)
    where_36 = tl.zeros([128, 128], dtype=tl.float32)
    where_36 = tl.where(mul_15 + tl.arange(0, 128)[:, None] >= i_32 + tl.arange(0, 128)[None, :], where_36, float('-inf'))
    add_37 = dot_35 + where_36
    exp2_38 = tl.math.exp2(add_37)
    reduce_sum_39 = tl.sum(exp2_38, axis=1, keep_dims=True).to(tl.float32)
    reduce_sum_39 += zero_28
    converted_40 = exp2_38.to(tl.float16)
    dot_41 = tl.dot(converted_40, block_load_34)
    add_42 = zero_27 + dot_41
    block_advance_43 = tl.advance(block_ptr_30, (0, 128,))
    block_advance_44 = tl.advance(block_ptr_31, (128, 0,))
    block_ptr_30 = block_advance_43
    block_ptr_31 = block_advance_44
    zero_27 = add_42
    zero_28 = reduce_sum_39
  div_45 = zero_27 / zero_28
  converted_46 = div_45.to(tl.float16)
  block_store_47 = tl.store(block_ptr_23, zero_28)
  block_store_48 = tl.store(block_ptr_24, converted_46)

def bench_H2O_p4():
  dev = torch.cuda.current_device()
  rand_arg_0 = torch.randn(1, 4096, 32, 128, dtype=torch.float16, device=dev)
  rand_arg_1 = torch.randn(1, 4096, 32, 128, dtype=torch.float16, device=dev)
  rand_arg_2 = torch.randn(1, 32, 4096, 1, dtype=torch.float32, device=dev)
  avg_ms = triton.testing.do_bench(lambda: H2O_p4(rand_arg_0, rand_arg_1, rand_arg_2))
  print('[H2O_p4] avg_ms:', avg_ms)

def H2O_p4(arg0: torch.Tensor, arg1: torch.Tensor, arg2: torch.Tensor) -> torch.Tensor:
  dev = arg0.device
  autotune_key = torch.cuda.get_device_capability(dev)[0]
  tensor_0 = arg0
  tensor_1 = arg1
  tensor_2 = arg2
  empty_ptr_3 = torch.empty(1, 32, 4096, dtype=torch.float32, device=dev)
  grid = (1, 32, 32)
  H2O_p4_kernel[grid](tensor_0, tensor_1, tensor_2, empty_ptr_3, autotune_key)
  tensor_4 = empty_ptr_3
  return tensor_4

@triton.autotune(configs=[
  triton.Config({}, num_warps=4),
  triton.Config({}, num_warps=8),
], key=['autotune_key'])
@triton.jit
def H2O_p4_kernel(
  arg_0,
  arg_1,
  arg_2,
  arg_3,
  autotune_key,
):
  pid_4 = tl.program_id(0)
  pid_5 = tl.program_id(1)
  pid_6 = tl.program_id(2)
  const_7 = 1.275311e-01
  const_8 = float('-inf')
  const_9 = 0.000000e+00
  const_10 = 4096
  const_11 = 128
  const_12 = 1
  mul_13 = pid_6 * const_11
  mul_14 = pid_5 * const_11
  mul_15 = mul_14 * const_10
  add_16 = mul_15 + mul_13
  block_ptr_17 = tl.make_block_ptr(
    base=arg_1 + add_16,
    shape=(128, 128,),
    strides=(1, 4096,),
    offsets=(0, 0,),
    block_shape=(128, 128,),
    order=(0, 1,),
  )
  block_load_18 = tl.load(block_ptr_17)
  mul_19 = pid_6 * const_10
  add_20 = mul_14 + mul_19
  block_ptr_21 = tl.make_block_ptr(
    base=arg_3 + add_20,
    shape=(128,),
    strides=(1,),
    offsets=(0,),
    block_shape=(128,),
    order=(0,),
  )
  converted_22 = const_7
  mul_23 = block_load_18 * converted_22
  mul_23 = mul_23.to(tl.float16)
  zero_24 = tl.zeros([128], dtype=tl.float32)
  block_ptr_25 = tl.make_block_ptr(
    base=arg_0 + add_16,
    shape=(4096, 128,),
    strides=(4096, 1,),
    offsets=(0, 0,),
    block_shape=(128, 128,),
    order=(1, 0,),
  )
  block_ptr_26 = tl.make_block_ptr(
    base=arg_2 + add_20,
    shape=(4096,),
    strides=(1,),
    offsets=(0,),
    block_shape=(128,),
    order=(0,),
  )
  for i_27 in range(mul_14, const_10, const_11):
    block_load_28 = tl.load(block_ptr_25)
    block_load_29 = tl.load(block_ptr_26)
    where_30 = tl.zeros([128, 128], dtype=tl.float32)
    where_30 = tl.where(i_27 + tl.arange(0, 128)[:, None] >= mul_14 + tl.arange(0, 128)[None, :], where_30, float('-inf'))
    dot_31 = tl.dot(block_load_28, mul_23)
    add_32 = dot_31 + where_30
    exp2_33 = tl.math.exp2(add_32)
    unsqueeze_34 = block_load_29[:, None]
    div_35 = exp2_33 / unsqueeze_34
    reduce_sum_36 = tl.sum(div_35, axis=0, keep_dims=False).to(tl.float32)
    reduce_sum_36 += zero_24
    block_advance_37 = tl.advance(block_ptr_25, (128, 0,))
    block_advance_38 = tl.advance(block_ptr_26, (128,))
    block_ptr_25 = block_advance_37
    block_ptr_26 = block_advance_38
    zero_24 = reduce_sum_36
  block_store_39 = tl.store(block_ptr_21, zero_24)

def H2O(arg_0, arg_1, arg_2):
  k0_out_0, k0_out_1 = H2O_p1(arg_0, arg_2, arg_1)
  k1_out_0 = H2O_p4(arg_0, arg_1, k0_out_0)
  return k0_out_1, k1_out_0

write code to /tmp/tmpdd1_1pe7.py
start_peak_mem_mib=128.0
end_peak_mem_mib=417.0
gflops=137.438953472
mib=417.0
checking our...
out loss: {'abs_max': 0.001953125, 'abs_mean': 2.7582870298914486e-05, 'rel_max': inf, 'rel_mean': inf, 'nz_rel_max': 994.0, 'nz_rel_mean': 0.006222191583071725, 'mse': 2.319242889984175e-09, 'rmse': 4.8158518353290055e-05}
h2o_score loss: {'abs_max': 0.00164794921875, 'abs_mean': 3.417163203556228e-05, 'rel_max': 0.001686675892053946, 'rel_mean': 3.952492985040466e-05, 'nz_rel_max': 0.001686675892053946, 'nz_rel_mean': 3.952492985040466e-05, 'mse': 3.901068227874443e-09, 'rmse': 6.245853206627933e-05}
warmup start
warmup done
[our] avg 1.3049 ms, min 1.2903 ms, max 1.3936 ms, 105326.18667728042 gflops/s (10 runs, 100 warmups, profiled)
